model.pth (torch, 70935 bytes, 6 tensors)

rnn.weight_ih_l0 f4 [128, 3]
000000 9e 2a f7 bc cf 04 83 be ba 2d 1d 3d be e2 f4 3b
       -0.030171689 -0.25589606 0.038373686 0.007473319
000010 2e 26 e2 bb 78 9b 56 bd 95 b2 82 3a ce d4 5a bc
       -0.006901524 -0.05239436 0.0009971434 -0.013356401
000020 de 54 6d 3d 9b fc c1 bb 2c 38 6a 3b d6 65 3a 3d
       0.057942264 -0.0059200055 0.0035739047 0.045507275
000030 8c 56 a1 bb 21 a8 ab bb 00 dc 04 b9 b8 53 03 bb
       -0.0049236473 -0.0052385484 -0.00012670457 -0.0020038914
000040 36 5d c0 ba f7 b2 50 bd e7 c3 0f bc 7b 2b 72 3a
       -0.0014676217 -0.050951924 -0.008774734 0.00092380465
000050 85 9a 89 3d 17 d0 0c bd 3e 4e f6 3d 3e 95 46 3d
       0.067189254 -0.034378137 0.12026642 0.048482172
000060 4b ae 20 bb 53 6e 05 3c c1 88 3c bd 64 25 84 be
       -0.002451795 0.008143979 -0.046028856 -0.25809777
000070 34 05 5b 3b f6 03 08 3d 2c 17 02 bb 57 29 2b 3b
       0.003341985 0.033206902 -0.0019850237 0.002611717
000080 23 d8 b0 3d bb a5 93 bd b5 88 6b 3e 62 ec 51 3d
       0.08634975 -0.07209345 0.23001368 0.051250823
000090 c0 ce a1 bb 1d eb 34 3a 34 a1 ff bc c3 92 a6 ba
       -0.0049379766 0.00069014897 -0.031204797 -0.0012708533
0000a0 0e 82 09 3b 31 4b 12 bd c0 e7 60 bb 22 75 8e 3c
       0.002098206 -0.03571624 -0.0034317821 0.017389838
0000b0 f7 0c 36 bd 7a 8b e9 3c 3d 30 63 bd 05 69 2e bd
       -0.044445958 0.02850889 -0.055465925 -0.042580623
0000c0 9a 3e e3 3a d7 ba 14 3c ba 62 76 3d a6 4e 69 be
       0.0017337382 0.009077749 0.060152747 -0.22783908
0000d0 8f 49 23 3c 4a b0 81 bd 80 dc de bb 6d 1d 68 bc
       0.009966268 -0.063324526 -0.006801188 -0.014167172
0000e0 a9 52 a6 3d 7a 2f 19 3d 06 b5 83 be 41 77 9e 3d
       0.08121235 0.037398793 -0.25724047 0.0773759
0000f0 e5 46 a3 3a e0 11 cc 3a 12 af 1f 3d 7a 22 5c be
       0.0012457041 0.0015569292 0.03898532 -0.21497527
000100 69 05 22 bd 73 7e ad bd 17 49 0e bc b9 60 32 bc
       -0.03955594 -0.08471384 -0.008684418 -0.010887318
000110 ab ca 32 bd 55 0c 55 bd 68 4d 40 bc fd 5e 93 3d
       -0.04365031 -0.052013714 -0.011737205 0.07195852
000120 30 63 f0 3b bf 02 a5 bc f7 b6 22 bd 2e 1f 40 bb
       0.007336043 -0.020142911 -0.03972527 -0.002931546
000130 e8 38 ab 3a 98 03 0e 3c 85 18 0b bd 07 78 21 3e
       0.0013063224 0.008667849 -0.03395893 0.15768443
000140 30 02 3e bc 71 3c 3a 3b d9 de 66 bb b0 6b e5 3c
       -0.011597201 0.0028417374 -0.0035228042 0.028005451
000150 a3 f0 8d 3e db ed 74 3c 12 a8 1c bd 85 d6 3d bd
       0.27722654 0.014949287 -0.03824622 -0.04634716
000160 89 0a 0e 3d b1 ab 8a 3d 54 53 a3 3a 59 74 a3 bc
       0.034678016 0.06771029 0.0012460747 -0.01995294
000170 88 d5 10 3d 28 6a 33 bd 73 d1 9d be ac 18 99 bc
       0.03535989 -0.04380241 -0.3082386 -0.018688522
000180 54 1e 10 bc ca 4c 68 3b d0 8c 6a 3c 07 5a e4 bb
       -0.008796293 0.003544616 0.014315799 -0.00696874
000190 de d4 b2 3b 13 61 aa 3d 52 8b 65 3b c8 46 0d bc
       0.0054575047 0.08319297 0.0035025668 -0.008622833
0001a0 a8 2f f1 bc cf 98 16 3b 38 18 14 3c 43 a5 ae bd
       -0.02944167 0.0022979265 0.009038977 -0.08527615
0001b0 30 e7 2a 3b b6 79 d0 ba b4 fd 91 3c d6 5b 03 bb
       0.002607774 -0.0015905413 0.01782117 -0.0020043752
0001c0 d7 59 3b 3a 69 19 a7 3d f1 c5 c5 3b 69 9f 0d bc
       0.0007146871 0.081591435 0.0060355593 -0.008643963
0001d0 a0 cf 78 bd 51 cf 70 bb f2 1a 53 bb 4a 4a 99 bd
       -0.06074488 -0.0036744664 -0.0032212106 -0.07484873
0001e0 b3 96 c2 bb e3 ec fd bb 05 20 48 bd 07 80 89 ba
       -0.005938375 -0.0077491864 -0.04885866 -0.0010490426
0001f0 3c 42 2e 3b 00 28 ca bc 8c c9 1d 3b 04 13 53 bb
       0.0026589772 -0.024677277 0.002407643 -0.003220738
000200 c8 55 ac bc 3e f4 c4 bb 78 c3 bc 3b a0 4a 6b 3c
       -0.021036997 -0.0060105613 0.0057606064 0.014361054
000210 b7 10 0f 3a cb e2 bd 3a 14 0a da bc 40 e9 19 3b
       0.0005457508 0.0014487145 -0.026616134 0.0023484975
000220 03 85 63 39 f3 e3 98 bd 6d 63 92 bc 94 65 53 3e
       0.00021697958 -0.07465353 -0.017869676 0.20644218
000230 e0 ab 9e bd 3b 89 8c 3e 63 41 7e 3d e4 d4 ab 3c
       -0.07747626 0.2744845 0.062074076 0.020975538
000240 dc 6e 85 3b ab 36 c9 bc 20 b7 77 bd 1b a9 a7 3b
       0.0040720534 -0.0245622 -0.060477376 0.0051165945
000250 66 1e f4 bb 89 8a a4 3d 94 23 b4 bb 13 2a 33 bb
       -0.007449913 0.08034236 -0.0054974053 -0.002733831
000260 b9 3d a7 3d d1 fd 9d bb 3b c6 b7 ba a6 68 61 3d
       0.081660695 -0.004821517 -0.0014020869 0.05503144
000270 ac 17 b4 bb ad b2 03 3c 88 d0 ec 3c 80 4b 3f bb
       -0.005495986 0.008038205 0.02890803 -0.0029189289
000280 49 2c c3 bb 45 b2 11 bd ec 4b ea ba 7d 7e a6 3b
       -0.005956207 -0.0355704 -0.001787541 0.0050809965
000290 cd 7c 01 bd 92 ef 0b ba dd 13 86 3b 12 72 78 3d
       -0.03161316 -0.0005338128 0.0040917234 0.06065566
0002a0 f7 22 64 bc 37 ea ae ba c6 5b 70 3d 40 c5 f1 39
       -0.013924352 -0.0013344948 0.058681272 0.00046114065
0002b0 4a 23 e7 3b d4 7e a6 bc b0 72 0e bc c9 5c 84 3c
       0.0070537673 -0.020324148 -0.008694336 0.016157525
0002c0 2f af 9d bd af 6b 95 b9 6e 82 28 3b ea 19 5b 3d
       -0.07699429 -0.00028499725 0.0025712508 0.05349151
0002d0 47 56 f6 bd a5 8b 05 bd f0 79 a7 bb d0 b8 cb 3b
       -0.12028175 -0.03260388 -0.0051109716 0.0062170997
0002e0 6b 3e 8d bc 94 4c c0 bc 26 71 89 bc 66 35 78 bc
       -0.017241677 -0.023474015 -0.016777586 -0.01514945
0002f0 2c e8 9b 3c a0 b6 c1 bb 27 62 14 3b 56 d7 3c 3d
       0.019031607 -0.005911663 0.0022641511 0.046103798
000300 c9 b4 7f bc 89 3a 84 3b 10 3f 0e 3d 28 60 22 3c
       -0.015607067 0.0040352982 0.03472811 0.009910621
000310 7c 4a e6 bb 63 a8 80 3d 40 90 09 bc da e7 80 3c
       -0.007027922 0.06282117 -0.008396208 0.015735555
000320 32 5c 63 3d dc 56 9c 3a c1 3b e8 3a 54 5f 78 bd
       0.055507846 0.0011927742 0.0017718003 -0.060637787
000330 55 0c 41 3e 08 d3 e5 bc c0 b3 80 ba bc a2 20 bd
       0.1885236 -0.02805473 -0.0009819195 -0.039217696
000340 1d a3 33 be 88 4b 10 3d a4 73 f2 3a 86 17 8e 3c
       -0.17542692 0.035228282 0.0018497598 0.017345201
000350 c7 4e 4e bd 57 2b cd 3b 60 41 8d 3b 5a fd 68 3d
       -0.050368097 0.00626127 0.004310772 0.05688224
000360 a7 2a 7c 3d 7e 3a 3a be 2e 07 18 3d 1b e2 a2 ba
       0.061564114 -0.18186375 0.037116222 -0.0012427004
000370 78 cf 33 ba 4d 95 26 bd d6 38 ed ba fc 7c 23 3b
       -0.00068592234 -0.040669728 -0.0018098603 0.0024946323
000380 b0 d5 9e bd f2 35 3c 3b d0 2e f5 3a 28 35 a9 bd
       -0.077556014 0.0028718677 0.0018705968 -0.08262092
000390 f6 29 bd bb 7f b2 e4 3b d6 23 07 3d da cb 6e 3e
       -0.0057728244 0.006979286 0.03299316 0.2331995
0003a0 fc 27 cd 3c 08 2b 34 3c 91 a5 99 3b 64 f4 3f b9
       0.02504348 0.010996588 0.0046889265 -0.00018306222
0003b0 d6 0f 31 3d 34 fb 4c 3d fc a7 70 be 58 2c b6 bc
       0.043227993 0.050044253 -0.23501581 -0.022237942
0003c0 91 44 85 be 6d 77 d3 3c 80 81 a7 ba 35 3b 28 3b
       -0.26028875 0.025813783 -0.0012779683 0.0025670056
0003d0 5f eb 15 bb 18 21 4f 3c df 8c 3f 3a 50 46 a0 3b
       -0.0022875888 0.0126421675 0.0007307063 0.0048911944
0003e0 f8 a4 32 bd 23 95 ba bb 43 bc 25 bb be 0b f3 bc
       -0.043614358 -0.005694048 -0.0025289215 -0.029668685
0003f0 f0 d3 8e ba 49 b4 9c bc 60 f7 6e bc 4a 1b 1f bc
       -0.0010896903 -0.019128935 -0.014585346 -0.009711096

rnn.weight_hh_l0 f4 [128, 128]
000000 2e 20 57 3e b5 b0 4f bd 40 40 71 3d 97 94 dd bd
       0.2100837 -0.05070563 0.058899164 -0.10819357
000010 23 a5 f2 3d 23 fa 82 bd c8 56 58 bd 5f 25 be bd
       0.118479036 -0.06395366 -0.052817136 -0.09284472
000020 83 01 8b 3d dd 39 99 bd 70 3d c0 bd 16 92 8f be
       0.06787398 -0.0748174 -0.09386718 -0.28041142
000030 a4 51 20 3d c4 c3 e4 bc 8a 4b 47 bb a5 37 cf bd
       0.03914036 -0.02792538 -0.0030410015 -0.10118035
000040 a1 fe 16 bc f2 e4 63 3d 8d 4f c7 3d 1b d8 aa 3e
       -0.009215982 0.05563826 0.0973197 0.33368
000050 6f 0a e5 3d 2f 7c c1 3d 5d 41 54 bd 18 01 d5 bd
       0.11183631 0.09447514 -0.051820148 -0.10400599
000060 48 cc f9 bd 56 65 36 bd 82 a2 5c be bd 89 00 3d
       -0.12197167 -0.044530235 -0.21546367 0.031381357
000070 bd 7c 95 bd 02 bd c1 bd e2 4e c0 3d 55 d2 89 3e
       -0.072991826 -0.094598785 0.09390046 0.26918283
000080 02 7b 33 3c 51 3f 07 bd a1 61 f3 3d a3 d1 b1 3c
       0.01095462 -0.033019368 0.118838556 0.021706408
000090 f7 fc d0 3b da ab 27 bc 4f 87 89 bd 0e 99 9f 3d
       0.006377812 -0.010233844 -0.06715261 0.07792865
0000a0 2f b5 19 be 16 26 86 bc 89 aa b8 bc ea a9 6a 3d
       -0.15010522 -0.016375583 -0.022542255 0.05729095
0000b0 6f 0a d0 bd 3a 83 1c 3d c5 84 3c be d5 54 7b bd
       -0.1015824 0.038211085 -0.18410023 -0.0613602
0000c0 8a 0e ad bb 3b 07 62 3d 38 e6 9e 3d 03 d5 9b 3c
       -0.005281274 0.055182677 0.077587545 0.01902247
0000d0 93 04 97 3c 89 08 21 3e 1e b9 8d 3d 13 ec b2 bd
       0.018434798 0.15725912 0.06920074 -0.08736434
0000e0 71 0e be bd 27 74 89 bc fa d3 33 be 32 38 07 be
       -0.09280098 -0.016779019 -0.17561331 -0.1320503
0000f0 1f 53 ab 3d 15 39 8b 3d 88 4c 15 3e dc aa e0 bb
       0.083654635 0.06797997 0.14579976 -0.0068563055
000100 69 58 6b bd 9f 08 10 be c5 d2 21 bd d9 94 ae bd
       -0.05745736 -0.14065789 -0.039507646 -0.08524484
000110 58 66 42 bd eb 62 5a 3e 72 ee 67 bd a7 a5 bb bc
       -0.047460884 0.21326797 -0.056623884 -0.022906138
000120 70 c3 87 3e a8 45 6e bd ef c4 85 3c 2b 5f 18 3d
       0.26516294 -0.058171898 0.016329257 0.037200134
000130 e0 f1 84 3c e9 43 33 3d 6a 72 1d bd 08 12 2e 3e
       0.016228616 0.043765936 -0.038439192 0.16999066
000140 4b e5 60 3c cf 4e a8 3d bd f4 5b 3d 99 19 82 3d
       0.013726543 0.082181565 0.053700197 0.063525386
000150 25 0e f5 3c 02 57 5b 3e fe 95 92 bd 3c 7a 9e bc
       0.029913971 0.2141991 -0.07157515 -0.019345395
000160 86 59 b9 bb b8 6c 5b 3d f8 d6 dd bd f8 b6 1d bd
       -0.005656424 0.05357048 -0.10832018 -0.03850457
000170 2c 20 82 3c 5c fd dc bd 75 73 39 bd 70 68 c7 bd
       0.015884481 -0.10790512 -0.045276124 -0.09736717
000180 ac 9e b5 bd c5 7d de 3d d8 19 4c bc 79 7e f2 bc
       -0.08868155 0.108638324 -0.0124573335 -0.029601322
000190 64 88 b2 bb 63 cc 64 3e 23 3d 49 3d c0 97 2a 3d
       -0.005448388 0.22343592 0.04913057 0.041648626
0001a0 80 7b b9 bd 59 8b a1 bd 5c c3 91 3c 82 c6 8f bd
       -0.09056759 -0.078879066 0.01779335 -0.07020284
0001b0 a4 07 96 3d ad 65 6d bd 1d e1 b9 bc c3 b3 c6 bd
       0.07325676 -0.057958294 -0.02269035 -0.097022556
0001c0 e6 1c a0 3e 6a 75 26 3d 65 70 16 3d 1d ae 5d bd
       0.31272048 0.04063932 0.03672828 -0.054121125
0001d0 55 4b da bc eb 83 4e bd 8b 02 b5 bd 41 5f 32 bd
       -0.02664725 -0.050418776 -0.08838376 -0.043547872
0001e0 34 24 20 bd 0c 75 27 3d a8 1d c7 bd 79 fd 82 ba
       -0.039097026 0.04088311 -0.09722453 -0.0009993754
0001f0 97 1a 2b be d4 2e de bd 48 ec 9d bd 19 3e 13 3e
       -0.16709362 -0.108487755 -0.07711083 0.14379157
000200 51 97 ca bc 2f 82 17 bf 1a 0f 89 bd 7c d8 8a 3d
       -0.024730356 -0.5918302 -0.066923335 0.06779572
000210 de 01 9d bd 66 27 02 bd b5 10 10 3d c1 34 36 3a
       -0.07666372 -0.031775855 0.035172183 0.000695061
000220 37 bc 84 bd 10 02 2d bd ac 4a 9a bc 37 0e e3 bc
       -0.06481212 -0.042238295 -0.018834434 -0.02771674
000230 96 d1 7e 3d 4b b1 55 3d e4 f3 bd 3d 4a 75 f7 3d
       0.062211595 0.052171033 0.09275034 0.12082918
000240 aa 31 b5 3c da b2 5d 3d 27 9a c1 bb 02 4c 81 3d
       0.022118408 0.054125644 -0.005908269 0.063133255
000250 ac 31 96 bb 75 97 8c 3b 00 58 ba 3a 5e a7 4c 3c
       -0.004583558 0.004290516 0.00142169 0.012491075
000260 7c b3 f0 3c 09 58 d7 3c 4a 1d 82 3d f8 04 18 3d
       0.02938246 0.026287096 0.06353243 0.037114114
000270 61 c0 55 3d e9 cf f0 bc 8a 27 72 bd 61 f4 fe 3c
       0.05218542 -0.029396014 -0.05911974 0.031122388
000280 64 d3 ec b8 57 49 e0 bc 0a f1 90 bd b7 ec 4e 3c
       -0.000112927315 -0.027378721 -0.070772246 0.012629679
000290 f3 63 9f bd db 9a a2 3d 41 81 87 bc 5d f3 87 bd
       -0.07782736 0.079396926 -0.016541125 -0.06638215
0002a0 9a 2e 8d 3d c7 42 a5 bc 91 58 53 bd 53 a8 56 bd
       0.06893654 -0.020173443 -0.051598135 -0.05240662
0002b0 34 25 6b 3d 5a 51 3d bc 48 ee cb 3d 75 61 9e 3d
       0.057408527 -0.01155504 0.09957558 0.07733432
0002c0 be da b7 bb 3b 04 3f bd e5 ce 1b bd 17 00 d9 bc
       -0.005610793 -0.046634894 -0.038039107 -0.0264893
0002d0 9e 37 8c 3c 64 8b d3 3b 30 e8 3f bd ea bc 93 3d
       0.017116364 0.0064558256 -0.04685229 0.07213767
0002e0 a9 71 0c 3d b3 ea 30 3b 5e 3f bd bc c5 29 1a 3c
       0.034288082 0.002699536 -0.023101505 0.009409373
0002f0 28 04 27 3d bf 14 6e bd 70 07 bb bd a1 84 fa 3d
       0.040775448 -0.058125254 -0.09132278 0.12232328
000300 38 a7 26 bd d3 85 4f bd 27 80 1e 3d 31 f0 97 3c
       -0.040686816 -0.050664734 0.038696434 0.01854715
000310 ff c3 38 bd 00 e9 e2 39 51 24 a8 3c ff 9c 51 bd
       -0.04510879 0.00043279678 0.02052513 -0.051175114
000320 d1 82 cc 3b bb f8 26 3d 61 59 25 3c 26 0f d6 bd
       0.0062411805 0.04076455 0.01009211 -0.10452108
000330 7c 82 03 bd 4e d3 75 bc 88 0b e8 bb 67 42 37 bd
       -0.03210686 -0.015003992 -0.0070814528 -0.04474106
000340 cb 95 18 bc 46 8e aa ba a5 a3 32 bc d0 2e a2 3c
       -0.009313057 -0.0013012371 -0.010903274 0.019797713
000350 5e 47 05 bb 21 c5 5c 3d 6d 27 81 3b 9a 13 2c 3d
       -0.0020336728 0.053898934 0.0039414675 0.04201088
000360 16 fa cc 3c f3 22 83 3d ea 8b 0a 3e 4d 99 04 3d
       0.025021594 0.064031504 0.13529935 0.03237276
000370 23 d7 8f bc 04 c1 c8 bc b5 b5 48 3d f1 71 8e 3a
       -0.01755864 -0.0245061 0.049001414 0.0010867697
000380 64 f2 de 3d b9 b8 03 3d 93 d1 d8 bc 9a 5e 32 3d
       0.10886076 0.032158587 -0.02646712 0.04354725
000390 b4 bf e0 bd 34 1d 98 3a f4 cd 0b 3d 78 c0 fb 3c
       -0.109740645 0.0011605383 0.03413196 0.030731425
0003a0 37 d9 b6 bd 90 3f e2 3b 68 88 58 bd 00 e8 3d 3d
       -0.08928149 0.00690455 -0.052864462 0.04636383
0003b0 2a 51 18 bc 5c 9a b1 bb f0 b3 92 3c b1 bf b8 3d
       -0.009296695 -0.0054200124 0.017908067 0.09020937
0003c0 ed ec c1 3c 40 c3 f5 bd 1b 39 af 3d 90 65 ae bd
       0.023672545 -0.120001316 0.08555814 -0.08515465
0003d0 1e 0f 58 bc 54 65 66 bd db e5 12 bc ba c4 03 39
       -0.013187198 -0.056248978 -0.008965935 0.0001256642
0003e0 ee 8a 5d 3d ca ae 6b bd 0a 33 d3 bc 81 ca 6e 3d
       0.05408757 -0.05753974 -0.025781173 0.05829859
0003f0 3c 9d 86 bd 07 c3 86 3d 65 bd 99 bc 38 86 1a 3c
       -0.06572959 0.06580167 -0.018767068 0.009431414

rnn.bias_ih_l0 f4 [128]
000000 29 cb e7 bc 19 42 67 3d 46 5e 92 bd 78 af e1 3c
       -0.028295116 0.05645952 -0.071468875 0.02754949
000010 46 ef a9 3b f9 62 58 bd 16 7e 99 3a 3d 42 89 3d
       0.0051859943 -0.052828763 0.001171055 0.06702087
000020 e4 d6 ae bc eb c2 e9 3c d1 45 be bc 10 8e a9 3d
       -0.021342702 0.028535327 -0.02322665 0.082790494
000030 61 e0 2b 3d 86 d4 83 bb 6b c8 06 bd 78 a0 73 ba
       0.04196203 -0.0040231375 -0.032905977 -0.0009293626
000040 4c 3c 10 bd d6 32 39 3d bc 4d 24 3c 6d 95 0e 3d
       -0.035213754 0.045214497 0.010028299 0.034810472
000050 53 c5 c2 3c 3e ce 39 3d f7 7c 0f 3d 82 cb 91 bd
       0.023775732 0.045362704 0.035031285 -0.07118894
000060 3d 7c 3f 3c 6a f9 9c bc e5 35 43 bc e8 40 a0 3c
       0.011687336 -0.019161899 -0.011914705 0.0195622
000070 3e 5f 91 3c 67 93 d1 3c bf df 6c bb 26 29 5a bd
       0.01774561 0.025582982 -0.0036144105 -0.0532619
000080 32 72 5a 3c c1 96 12 3d eb 40 24 bc bd 38 3c bd
       0.01333289 0.0357883 -0.010025243 -0.045952547
000090 aa 27 9d 3b f4 92 07 3d 45 76 7b 3d 14 cc 0f 3c
       0.004795988 0.03309913 0.061392087 0.008776683
0000a0 8c 41 78 3b 93 ad 95 bc 45 0f 66 bd c6 7e b2 3c
       0.0037880866 -0.018271243 -0.056166906 0.021788966
0000b0 80 68 0a 3d 0c bb b9 bb 00 fd 81 bc 2b 7a 8f bd
       0.033791065 -0.0056680497 -0.01586771 -0.070057236
0000c0 e5 ae 05 bd 50 6d fe bc c3 98 8b bd 1d 6e 8a 3c
       -0.032637496 -0.031057984 -0.06816246 0.01689821
0000d0 e6 4f ed bc eb 09 ae bc 85 0c 8e 3d 87 07 de bc
       -0.028968763 -0.021244964 0.06935982 -0.027103199
0000e0 e8 30 98 3c ed 5e 77 bd db 4e 5d 3d 56 62 0c 3c
       0.018578008 -0.060393263 0.05403028 0.008568367
0000f0 68 51 4d 3d 9c b9 1b bd c8 54 52 bc 9f e1 85 bb
       0.050126463 -0.038018808 -0.012837596 -0.004085734
000100 b8 4f 31 3d 7a 2d 95 3d 23 e8 1e bc 6f 11 12 bc
       0.043288916 0.072840646 -0.0096989 -0.008915289
000110 44 8e af bc 23 8c 2c 3d ad 8c 80 bd 27 8a b7 bc
       -0.021430142 0.042125832 -0.06276832 -0.022404743
000120 56 56 63 bd cd fc 8b 3c 50 02 e7 bc 35 c5 2e bd
       -0.05550226 0.017088318 -0.028199345 -0.04266854
000130 e1 ca 27 3d 0d 87 42 3c 54 a9 97 3d 7b 2c c6 bc
       0.040964965 0.011873019 0.07405344 -0.024191132
000140 40 fb 67 3d 97 5e 84 3c 16 1c 2f 3d 69 c3 e0 bc
       0.056636095 0.016158385 0.042751394 -0.027436929
000150 c9 3e 21 bd 47 fa b3 bc 9b eb 08 3d 1a ff fd 3c
       -0.039366517 -0.021969927 0.033427816 0.031005431
000160 f3 88 91 bd c4 4b 42 3d 85 55 c7 3c 27 4b 08 bc
       -0.07106199 0.047435537 0.024332771 -0.008318699
000170 9c 3d 1a 3d 2f c3 f5 3c 22 00 05 bc d9 3f c4 bc
       0.03765641 0.030000297 -0.008117707 -0.023956226
000180 6a 48 b5 3a 5b aa ea 3c 0e 3a 6e 3c cb 70 f9 bb
       0.0013830785 0.028645685 0.0145402085 -0.007612323
000190 59 8a 33 3d 73 aa d9 bc d2 55 2c bc 96 55 4a 3d
       0.04383311 -0.026570534 -0.010518508 0.049398027
0001a0 4e 59 59 3d cc ae 2e 3d 6a 6c 5c 3d 6a e0 05 bd
       0.053063683 0.042647168 0.05381433 -0.03268472
0001b0 61 94 8b 3c 94 84 50 3d d6 82 8c bd 64 b4 0d 3d
       0.017038526 0.050907686 -0.068608925 0.034595862
0001c0 9a cd da bd cb a3 89 bd 80 6f ef 3c cc 9b 01 3d
       -0.10683747 -0.06720694 0.029227972 0.03164272
0001d0 7f 73 84 3c 5a d3 1b 3d 65 17 96 3d 0f 43 d6 3b
       0.016168354 0.038043357 0.07328681 0.0065387557
0001e0 f5 7e de bc 09 bf 11 bd 0b e0 63 3d 82 e8 0e bd
       -0.027160147 -0.035582576 0.055633586 -0.034889705
0001f0 69 71 24 3c 6b 73 8e bc 28 67 5e bc 23 be dc bd
       0.010036805 -0.01738902 -0.013574399 -0.10778453

rnn.bias_hh_l0 f4 [128]
000000 08 54 d2 bb 87 85 65 bd e4 b5 8b 3d b4 ac eb bc
       -0.0064187087 -0.056035545 0.06821802 -0.028768875
000010 14 cc d0 bb 2f 4d 5a 3d 27 3c 56 bb 7d 9d 17 bd
       -0.0063719843 0.053296264 -0.0032689662 -0.037015427
000020 bb 86 c4 3c 6e 00 01 bc d3 48 ce 3c 52 b0 00 3c
       0.023990026 -0.007873638 0.02518121 0.007854538
000030 f1 24 2a bd 14 6f 08 3c e3 c3 27 3d 71 a8 62 bc
       -0.041539136 0.008327264 0.040958297 -0.013834105
000040 aa 4f 21 3d d0 d4 12 bd c0 be 60 bc 35 e4 c3 bd
       0.039382614 -0.035847485 -0.013717353 -0.095650114
000050 f9 0d b4 bc 10 52 67 bd 61 24 2f bd 2e a6 42 3d
       -0.021979319 -0.056474745 -0.042759303 0.047521763
000060 70 4e 26 bc 30 ca 9e 3c 4c f1 95 3d c8 d1 a0 bc
       -0.010150537 0.01938352 0.07321414 -0.019631281
000070 bc 67 9c 3c c1 c5 9d bc c4 4d 6f bb 11 51 db ba
       0.019092433 -0.019259335 -0.0036514858 -0.0016732534
000080 0c 6a 89 bc 65 b5 14 bd ef 76 f3 3b e7 59 39 3d
       -0.0167742 -0.036305804 0.0074299495 0.045251753
000090 fe 99 53 bb fd 30 05 bd f7 93 71 bd 40 ac 72 bc
       -0.0032287831 -0.032517422 -0.058979 -0.014811575
0000a0 23 91 16 bc 88 14 8e 3c 5b a3 5c 3d d6 2d b9 bc
       -0.009189877 0.017343774 0.053866725 -0.022604864
0000b0 3a b3 00 bd 7c df 8b 3b d3 63 ae 3c 35 cc 9e 3d
       -0.031420924 0.004268585 0.021287834 0.07753793
0000c0 aa d2 e4 3c 85 a9 04 3d 59 ce 7e 3d 6f 24 96 bc
       0.027932484 0.03238823 0.062208507 -0.01832792
0000d0 07 80 f5 3c 26 d7 8f 3c a8 91 8a bd 23 4b e7 3c
       0.029968275 0.017558645 -0.06766063 0.02823407
0000e0 22 d2 8c bc bc 37 7c 3d 35 34 45 bd 44 4a dd bb
       -0.017190043 0.06157659 -0.04814549 -0.006753238
0000f0 3a 3a 5f bd be c4 11 3d 10 c6 d6 3b 3a 9a b5 3b
       -0.05449889 0.03558802 0.0065543726 0.005542067
000100 9a 91 3f bd 9a 4b 8d bd 85 98 21 3c e6 9b 02 3c
       -0.046769716 -0.068991855 0.009863024 0.007971739
000110 a0 e0 c4 3c 9d 99 54 bd a7 85 90 3d 21 6f d4 3c
       0.02403289 -0.05190431 0.07056742 0.025931897
000120 29 00 85 3c d5 19 80 bc 78 46 ea 3c f3 29 35 3d
       0.016235428 -0.015637318 0.028598055 0.04422946
000130 ad e1 36 bd 0a ff 98 3b 42 b0 98 bd df 4b dc bc
       -0.044648815 0.004669075 -0.074554935 -0.026891647
000140 96 35 18 bd 2a 01 87 bc 34 0d 2f bd d1 73 b8 3c
       -0.03716048 -0.016480047 -0.0427372 0.022516163
000150 59 f3 0e 3d 3b 26 2f bd 57 db 1e bd cc 4a 05 bd
       0.034900043 -0.04276107 -0.038783398 -0.032542035
000160 19 47 80 3d 34 2e 47 bd d2 31 d1 bc c3 c8 bd 3b
       0.06263561 -0.048628047 -0.025536451 0.005791755
000170 15 0f 02 bd eb f5 ae bc c0 eb 0e 3c bd 9d b8 3c
       -0.031752665 -0.021357497 0.008723199 0.022536153
000180 13 55 f4 ba 21 2c de bc 00 b6 4b bc 06 fe 82 3c
       -0.0018641077 -0.027120652 -0.012433529 0.015990268
000190 09 18 25 bd a6 39 42 bd 1a e3 09 3c fa 96 41 bd
       -0.040306125 -0.04741826 0.008415962 -0.047263123
0001a0 f0 8e 5a bd 40 f2 46 bd ee 44 06 bd 18 76 63 3d
       -0.053358972 -0.04857087 -0.03278058 0.055532545
0001b0 c6 d4 5f bc 4e c0 5b bd 1e 3e 79 3d 18 f2 0a bd
       -0.013661569 -0.053650193 0.060850255 -0.033922285
0001c0 1e 14 66 3c 85 e0 88 3d 75 1f e7 bc 54 dc 0e bd
       0.014042882 0.06683449 -0.028213242 -0.03487809
0001d0 31 99 b2 bc a2 39 2f bd 81 38 a0 bd e3 d7 e9 bb
       -0.021801563 -0.042779572 -0.07823277 -0.0071363314
0001e0 6d 0e cd 3c c3 b5 15 3d 05 6e 94 bd a2 17 1a 3d
       0.025031293 0.036550295 -0.07247547 0.037620194
0001f0 a3 f5 23 bc 58 a6 8e 3c e4 ed 24 3c ed 7a af 3c
       -0.010007295 0.017413303 0.010066483 0.02142092

fc.weight f4 [2, 128]
000000 65 67 ce 3b 6d e6 c3 39 52 dd 3b 39 08 21 ab 38
       0.0062989467 0.0003736498 0.00017916158 8.160068e-05
000010 4a cd 92 39 52 fb c1 b8 77 ea 28 39 e2 52 17 bb
       0.00028000242 -9.249769e-05 0.00016109073 -0.0023090173
000020 79 e7 c5 b9 51 d4 9c 3d be b7 f0 b7 b8 31 4f 3d
       -0.0003774723 0.07657684 -2.8695791e-05 0.050584525
000030 a3 fd 0e b8 8c 5b 1e b9 22 b1 16 39 ac a2 67 ba
       -3.4091656e-05 -0.00015102158 0.00014371102 -0.00088361907
000040 c0 07 14 39 43 b3 99 3d 84 cc 73 b9 af fd 21 3c
       0.00014117267 0.075048946 -0.00023250474 0.009887143
000050 84 d2 56 39 d3 b7 94 3d c7 22 4e 3a f9 6e 55 bc
       0.00020487054 0.07261624 0.00078634586 -0.013026946
000060 4b ad 07 ba f1 41 34 39 b7 0f 29 3d 87 c6 2b 39
       -0.0005175664 0.00017190703 0.041274752 0.00016381788
000070 79 37 cd bd 58 c6 a7 b9 1c 9a 15 3a 93 56 20 3d
       -0.10020346 -0.000320005 0.0005706863 0.039145064
000080 8a 24 c2 b8 37 32 20 b9 08 40 04 38 ef dc 17 b9
       -9.257447e-05 -0.00015277496 3.1530886e-05 -0.00014482786
000090 88 5a ce b6 39 a7 96 b9 33 fd f2 39 08 c4 0b ba
       -6.1498176e-06 -0.0002873482 0.00046346485 -0.000533164
0000a0 94 04 19 b9 7e b7 68 39 ff 2e 4a 38 c6 53 bc 39
       -0.00014592923 0.000221936 4.820432e-05 0.0003592057
0000b0 66 98 72 b9 bb 66 f9 b8 22 61 a5 bc 08 fc 96 bd
       -0.00023135691 -0.0001189238 -0.020187918 -0.0737229
0000c0 57 2a 35 3a 14 84 93 37 77 89 1c b9 68 53 38 b9
       0.0006910911 1.758527e-05 -0.00014928529 -0.00017578679
0000d0 ce e7 35 b9 b6 a3 92 b9 d0 4e f5 b7 f8 17 79 b9
       -0.00017347859 -0.00027969264 -2.9242976e-05 -0.0002375542
0000e0 80 bf 7f b8 d7 57 68 37 55 e6 44 38 9b c0 64 b9
       -6.0975086e-05 1.3848729e-05 4.6944555e-05 -0.00021815526
0000f0 be 41 3a 3d d7 ab b6 39 ac 24 fa b9 89 9e dc 38
       0.045472853 0.00034841776 -0.00047711038 0.00010519947
000100 7f a3 af b9 b4 5f f9 38 25 cb 65 b9 b6 3c 01 ba
       -0.00033500415 0.00011891071 -0.00021914819 -0.0004930006
000110 7a 68 a2 bd da f9 01 3d 71 54 db 39 e2 21 da 37
       -0.079300836 0.031732418 0.0004183385 2.6003403e-05
000120 b0 dc 02 bc a2 70 19 38 9a f8 4b b9 99 a1 a1 b8
       -0.007987186 3.658294e-05 -0.000194522 -7.707178e-05
000130 3d 42 56 b9 86 70 87 bd ec ab d4 b9 5b e8 9d 3c
       -0.00020433306 -0.06613259 -0.00040563883 0.019275835
000140 ff 51 57 3d e9 9a 7d b8 21 04 0d b9 35 9b ab 38
       0.052568432 -6.0464172e-05 -0.00013448346 8.182825e-05
000150 85 be 3a b9 22 e4 ab bc 39 7c cf 39 71 24 62 b9
       -0.00017809316 -0.020982806 0.0003957467 -0.00021566615
000160 bd 7d a4 b8 cb ee 19 ba c5 af 65 b8 c5 da 05 ba
       -7.84355e-05 -0.000587207 -5.4761553e-05 -0.00051061466
000170 a4 c9 12 b8 64 0c 16 3c a8 b6 44 bd d0 a7 15 3a
       -3.4996905e-05 0.009158228 -0.048025757 0.0005708905
000180 eb 5f 28 b9 34 2c 63 b9 e8 af 32 b9 91 d1 de 37
       -0.00016057461 -0.00021664874 -0.00017040933 2.656205e-05
000190 f5 90 80 39 8e 3d f6 bc 59 63 5c b9 56 1c c1 39
       0.00024522064 -0.030058648 -0.00021017845 0.0003683294
0001a0 dc 65 83 b8 f1 af f6 b9 8e 00 c5 bd 69 86 c1 3d
       -6.2655396e-05 -0.00047051863 -0.096192464 0.09449465
0001b0 d1 ee 1e ba b4 dc 9a 37 67 70 6e 3d 7d eb b5 39
       -0.0006062808 1.8461003e-05 0.058212664 0.00034698463
0001c0 ce 40 47 3d 3b 95 1b b8 26 05 75 39 45 be 1e 39
       0.048645787 -3.709386e-05 0.00023366939 0.00015138935
0001d0 7a e6 b2 b9 94 7d 1c 39 89 d9 2a b9 92 12 41 b8
       -0.00034122524 0.00014924101 -0.00016293502 -4.603208e-05
0001e0 87 eb 27 b9 d6 6f 9e b9 cd 1b 98 3d fd a0 6d 39
       -0.00016014102 -0.00030219433 0.074271776 0.00022662054
0001f0 b3 60 4f 39 37 7c 8e b9 88 17 7d 39 1b 25 d4 bc
       0.00019777082 -0.00027176898 0.00024136726 -0.0258966
000200 c8 18 b1 3d 4d 00 29 ba 17 dd e6 b9 ed 93 5f b9
       0.08647305 -0.0006446883 -0.00044033743 -0.00021322044
000210 17 80 89 b8 f7 71 75 39 d4 45 45 39 a6 4b 65 bc
       -6.556528e-05 0.00023407476 0.00018813397 -0.013995087
000220 cd 6e 76 39 fa 0d b8 3b ec d4 5f 36 07 ac 7c bd
       0.00023501665 0.0056169005 3.3353526e-06 -0.061687496
000230 99 ee 85 b9 d4 06 21 b8 7b 31 55 39 ee ee 08 3b
       -0.00025545506 -3.839175e-05 0.00020331696 0.0020894366
000240 2a 64 b2 b9 2f 0e 39 bd 15 40 8f ba a8 15 f3 3d
       -0.00034025434 -0.045179542 -0.0010929132 0.11869365
000250 27 b9 06 ba 2f 1e 6d bd 4b 34 9e 38 1e 51 31 3d
       -0.0005139284 -0.057890113 7.5437674e-05 0.04329025
000260 71 ef 40 39 7a d7 b8 b9 46 47 65 bc c3 16 a3 b9
       0.00018399746 -0.00035255757 -0.013994044 -0.00031106742
000270 06 ea 99 3c 70 75 a8 39 f4 73 7b b9 ea de ec 3d
       0.018788349 0.00032130955 -0.00023980421 0.11565955
000280 ec ae ae 38 64 ec ec 38 69 41 00 ba e7 42 f9 b8
       8.329548e-05 0.00011297388 -0.00048925594 -0.00011885707
000290 0d f1 8d 39 25 45 9a 39 c9 ff 1f ba 88 b5 f8 b8
       0.00027073213 0.00029424686 -0.00061034836 -0.00011859374
0002a0 70 6c 03 39 12 2a 80 b9 6b be 8e 39 31 c7 b7 38
       0.0001253353 -0.00024445407 0.00027226223 8.763222e-05
0002b0 fc ca cb 38 4c 51 03 b6 02 57 84 bd 2a d4 a5 bc
       9.717603e-05 -1.9567842e-06 -0.06461908 -0.02024277
0002c0 38 f7 9a b9 c7 56 4d b9 a5 46 07 3a 30 a4 c5 39
       -0.0002955736 -0.0001958265 0.0005160368 0.00037697097
0002d0 ea d1 71 39 35 c3 a4 b8 e4 d7 82 b8 56 e9 a2 38
       0.0002306175 -7.8564895e-05 -6.239096e-05 7.768224e-05
0002e0 2e 88 a9 b9 98 f6 c5 37 bf bd e4 b7 67 7d bd b8
       -0.00032335654 2.359906e-05 -2.7268075e-05 -9.03558e-05
0002f0 0f 3b 2f 3c 95 ba 50 b9 30 9b 8f 38 45 54 1f b9
       0.010695233 -0.00019905933 6.847677e-05 -0.00015194814
000300 38 aa c3 39 e2 19 92 b9 85 8e f8 37 a7 ff 23 ba
       0.0003732012 -0.00027866574 2.963027e-05 -0.0006256052
000310 39 38 43 3d 48 71 fb 3c 69 f9 c4 38 35 3d 88 38
       0.04766104 0.030693665 9.3924646e-05 6.496386e-05
000320 03 1c d3 3d 8b 24 28 39 59 1c a9 39 96 ae 62 b7
       0.10308077 0.00016035342 0.00032255313 -1.3511299e-05
000330 7f ca c8 39 3f c6 66 3c 88 94 af 39 63 e2 73 3d
       0.00038297844 0.0140853515 0.00033489265 0.05954207
000340 bd 07 39 bd fa 62 6b b7 ba 0e c6 b9 cf 20 09 3a
       -0.045173395 -1.4030136e-05 -0.00037776475 0.0005231024
000350 3e 8c 27 b9 fe 29 e4 3d 5c 0f 90 b9 0a 96 1f 37
       -0.00015978605 0.11140822 -0.00027477264 9.512072e-06
000360 b0 bc aa 39 b4 10 dc 39 fb a4 bd 39 bd 2d e2 b8
       0.0003256551 0.00041974115 0.0003617181 -0.00010785039
000370 22 80 61 b9 87 7b 08 3d 3e 03 9e bb 2d 63 c4 b9
       -0.00021505405 0.03332093 -0.004822164 -0.00037457925
000380 7a a5 44 39 07 0c 93 39 96 35 06 39 d0 3b bc 39
       0.00018753661 0.00028046986 0.00012799198 0.00035902718
000390 3a 60 0d b8 21 de b5 3d 4a 33 c0 39 88 06 54 b9
       -3.3706638e-05 0.08880258 0.00036659307 -0.00020220329
0003a0 74 78 8e 39 78 b7 ab 39 63 ce 2e bd ff 0d 2c bb
       0.00027174095 0.00032752356 -0.042677294 -0.002625346
0003b0 a7 c8 84 39 9e f5 f0 38 6f e7 e2 3c bc 13 d7 b9
       0.000253265 0.000114898416 0.027698247 -0.000410227
0003c0 ca c1 91 3d 41 4a 92 b8 ab b8 37 b9 53 86 11 38
       0.071170405 -6.9756534e-05 -0.00017521034 3.4695793e-05
0003d0 15 f3 23 3a 45 c4 a0 b8 26 f8 e7 39 fd 32 86 39
       0.00062541786 -7.6659526e-05 0.00044244638 0.0002559646
0003e0 84 e1 e0 39 3f ea 03 3a 65 bb 5c 3d dc fe 09 ba
       0.00042892632 0.0005032159 0.05388965 -0.0005264112
0003f0 5f 5d ef b9 c4 e1 a0 b9 c2 90 9d b9 62 24 a5 3d
       -0.000456552 -0.00030685787 -0.00030053227 0.0806358

fc.bias f4 [2]
000000 4f 5d ce ba 01 6d 94 ba
       -0.0015744361 -0.001132399
