model.pth (torch, 104659 bytes, 7 tensors)

encoder.weight f4 [27, 100]
0	0xbf3ab562	-0.7293302
1	0x3d2cb591	0.042165343
2	0xbeb07710	-0.34465837
3	0x3f514b77	0.81755775
4	0xbf10c8e0	-0.5655651
5	0x3e41d6f8	0.1892966
6	0xbf652678	-0.89511824
7	0xbd0346eb	-0.032050055
8	0xbfdfc4c7	-1.7481927
9	0xbf69ef8c	-0.91381145
10	0x3e8aa1b7	0.27076504
11	0x3e3dd8a8	0.18539679
12	0xbdf5b974	-0.11998263
13	0xbf3e62e0	-0.7436962
14	0x3f60803e	0.8769568
15	0x400336b8	2.0502148
16	0xbd46049d	-0.048344243
17	0xbf019203	-0.5061342
18	0x3ea2fd2a	0.31833774
19	0xbeaf5a20	-0.34248447
20	0x3e72beb6	0.23705563
21	0xbd135179	-0.03596637
22	0xbf8ffbc7	-1.1248711
23	0x3fad17f7	1.3522938
24	0x3f860b71	1.0472242
25	0x3ea626d6	0.32451504
26	0x3f0e5cc0	0.55610275
27	0xbe966207	-0.29371664
28	0xbfa10b4e	-1.2581575
29	0x3f2cefb2	0.67553246
30	0xbf623882	-0.88367474
31	0xbef62978	-0.48078513
32	0x3f386658	0.72031164
33	0xbf3350bd	-0.7004507
34	0x3ed16d3b	0.4090365
35	0x3e9e9493	0.30972728
36	0x3f48f07e	0.7849196
37	0x3f258647	0.64658016
38	0xbf95362a	-1.1657155
39	0xbeb47459	-0.35245016
40	0x3c8b9fa8	0.017043903
41	0xbfcba44b	-1.5909513
42	0xbf60592b	-0.8763606
43	0x400f88c4	2.2427225
44	0xbf68fb53	-0.9100849
45	0x3f50aea2	0.8151647
46	0xbdd4016a	-0.10351832
47	0x3eb3ab3d	0.35091582
48	0xbf50bc07	-0.81536907
49	0xbf7b1650	-0.9808092
50	0xbf96d9d5	-1.1785227
51	0x3f1aa2c9	0.6040464
52	0xbec2785a	-0.37982446
53	0x3e9d5745	0.30730644
54	0x3f9f8877	1.2463521
55	0xbf66edfc	-0.90206885
56	0xbe1ddffe	-0.15417477
57	0xbf98aa04	-1.1926885
58	0x3f861142	1.0474017
59	0x3f93d871	1.1550428
60	0xbdb76f6f	-0.08956801
61	0xbf2524d9	-0.6450935
62	0xbea3ab72	-0.3196674
63	0x3faae9cf	1.3352603
64	0xbf8f877d	-1.1213223
65	0x3f8d23e2	1.1026576
66	0x3f94d690	1.1627979
67	0xbd56ab1d	-0.05240928
68	0xbdd9bef2	-0.10632123
69	0xbeef4733	-0.46734008
70	0x3e85eeaf	0.26158664
71	0x3f23dd35	0.6400941
72	0xbde3e4b8	-0.11127609
73	0xbed52c80	-0.41635513
74	0x3ef09865	0.46991268
75	0xbe081508	-0.13289273
76	0xbcab0bd0	-0.020879656
77	0xbdd2ab7b	-0.102866136
78	0xbfa0adda	-1.2553055
79	0x3f9462fa	1.1592705
80	0xbfa0aec4	-1.2553334
81	0x3f027003	0.50952166
82	0xbef037ac	-0.46917474
83	0xbf3206b1	-0.6954146
84	0x3f34485c	0.7042291
85	0x3fad0753	1.351786
86	0xbfd758ab	-1.6823934
87	0xbfcbb64e	-1.591501
88	0xbeeb7275	-0.4598576
89	0xbf12e760	-0.573843
90	0x3f74a614	0.95565915
91	0x3f5c8a55	0.8614858
92	0x3f684bec	0.9074085
93	0xbe32f227	-0.17475186
94	0xbfe9077f	-1.8205413
95	0x3fc11b34	1.5086427
96	0xbf100c23	-0.5626852
97	0xbfea70d1	-1.8315679
98	0x3fae1a74	1.3601823
99	0xbf17534d	-0.5911148
100	0x4015de47	2.3416917
101	0x3fe57096	1.7924984
102	0x401cf364	2.4523554
103	0xbf2a18dc	-0.6644418
104	0xbddc0446	-0.107430026
105	0x3f1aca5a	0.60465014
106	0xbfada700	-1.3566589
107	0x3edab2b9	0.4271448
108	0xbefdf1f1	-0.4959865
109	0xc0320a4d	-2.7818787
110	0xc03245f2	-2.7855191
111	0xbf6de1c4	-0.92922616
112	0x3fde2391	1.7354604
113	0xbebce68e	-0.3689465
114	0xbf8f568a	-1.1198285
115	0xbff73246	-1.9312217
116	0x4030e607	2.7640398
117	0x3fea44b6	1.8302219
118	0x3edfab1f	0.43685243
119	0x3f37dd68	0.71822214
120	0x3fdb4fce	1.713373
121	0xbf9219b2	-1.1414092
122	0x4020c263	2.5118644
123	0x3f22bb2a	0.6356684
124	0x3f3214d8	0.69563055
125	0xbf4477e5	-0.76745445
126	0xbf25356b	-0.64534634
127	0x3fa0172d	1.2507073
128	0xbe199ba8	-0.15000784
129	0xbfd6a80f	-1.6770037
130	0x3f489cdf	0.78364366
131	0xbfa4c70a	-1.2873242
132	0x3f00e8b8	0.503551
133	0xbea74cef	-0.32675883
134	0x3ed6079f	0.4180269
135	0xbf6338ce	-0.8875855
136	0xbf77e9d5	-0.96841174
137	0xbf9a8a3d	-1.2073437
138	0x3f8006f8	1.0002127
139	0xc007531c	-2.1144476
140	0xbed46acf	-0.41487738
141	0xbe8a0b90	-0.26961946
142	0x3fa3e819	1.2805206
143	0xbf194d82	-0.5988389
144	0xc0058137	-2.0860116
145	0xbcd70511	-0.026247533
146	0xbf76b909	-0.9637609
147	0x3fbf8c5a	1.4964707
148	0x3e8a1284	0.2696725
149	0x401b2916	2.4243827
150	0x3e576411	0.21034266
151	0x3f551447	0.83234066
152	0xbe85b2b5	-0.26112905
153	0xbf84c005	-1.03711
154	0xbeb47247	-0.35243437
155	0x3f8452bb	1.0337747
156	0x3f73240d	0.94976884
157	0xbf8642ba	-1.0489113
158	0xbedee1de	-0.43531698
159	0xbe8a7630	-0.27043295
160	0xbf2620af	-0.6489362
161	0xbf883d12	-1.0643637
162	0xbf4330b8	-0.76246214
163	0x3e3a201d	0.18176313
164	0xbf22b817	-0.6356215
165	0xbfb3f8b4	-1.4060273
166	0xbe802b32	-0.25032955
167	0xbd3f9f4f	-0.046782788
168	0x3fd4c442	1.6622393
169	0x3e901758	0.2814281
170	0x3f2ceefa	0.6755215
171	0xbe39c992	-0.18143299
172	0xbde643e4	-0.11243418
173	0xc005092f	-2.0786855
174	0x3f8fe751	1.1242467
175	0x3f219828	0.63122797
176	0x3e4ef918	0.20212209
177	0xbf8ae52f	-1.0851191
178	0xbfa9ac58	-1.325572
179	0xbf85ed02	-1.0462954
180	0x3e8e9ac3	0.2785245
181	0x3e349741	0.17635824
182	0xbfc7758e	-1.558275
183	0xc00fcece	-2.2469974
184	0x3f81291f	1.0090674
185	0x3f772462	0.9653989
186	0x3d1c22a0	0.03811896
187	0xc0000b8a	-2.0007043
188	0x3f77c1df	0.967802
189	0x3d2fc03a	0.04290793
190	0x3f93935c	1.1529346
191	0x3ff3c745	1.9045187
192	0xbf8070cf	-1.0034426
193	0x3ee366c5	0.44414344
194	0x3f114907	0.56752056
195	0xbf8a4e07	-1.0805062
196	0x3e80bef2	0.2514568
197	0xbf56213d	-0.8364447
198	0xbe9bf195	-0.3045775
199	0xbfd0bb90	-1.630724
200	0x3d829815	0.063766636
201	0x3f4615a8	0.77376795
202	0x3fd6a7a0	1.6769905
203	0x3f8c3c8b	1.0955976
204	0x3f7851c2	0.9699975
205	0x3de7388a	0.11290081
206	0xbfac4eba	-1.3461525
207	0x3fc50c39	1.5394355
208	0xbe82a3aa	-0.2551549
209	0x3f361f15	0.7114118
210	0xbfb223a4	-1.3917127
211	0x3f875ad8	1.0574598
212	0xc0441ceb	-3.064265
213	0x3f17a19f	0.5923099
214	0x3eddf068	0.43347478
215	0xbeddcb1f	-0.43319032
216	0xbed2002c	-0.41015756
217	0x3f0bfd6c	0.54683566
218	0xbfa73f38	-1.3066168
219	0xc02a02e2	-2.656426
220	0xbefee604	-0.49784863
221	0x3f811d76	1.0087116
222	0x3f787504	0.9705355
223	0xbf9fa5ab	-1.2472433
224	0xbe8656bc	-0.26238048
225	0x4018aa55	2.3853962
226	0x3facc06e	1.3496225
227	0xbfd5e1bf	-1.6709517
228	0x3f570b77	0.8400187
229	0xbf7a37a4	-0.9774115
230	0xbf5068b3	-0.8140976
231	0x3f5711b6	0.840114
232	0x3f8b24ca	1.0870602
233	0xbf9c96fc	-1.2233577
234	0xbe9ed432	-0.31021267
235	0xbfa05cf6	-1.252837
236	0xbeff71f2	-0.4989162
237	0x3b1aac71	0.0023601318
238	0x3f1d54fd	0.61457807
239	0x3f67a523	0.90486354
240	0xbfdc6381	-1.7217866
241	0xbf901d16	-1.1258876
242	0x3f3f25bc	0.74666953
243	0xbfc511af	-1.5396022
244	0xbf37c061	-0.7177792
245	0xbf6c9093	-0.924081
246	0xbf9fcee6	-1.2485015
247	0x3f765418	0.96222067
248	0x3f266991	0.6500483
249	0xbf41494e	-0.7550248
250	0xbdb2ada2	-0.08724524
251	0x3fa83fdc	1.3144488
252	0x3fe30ea4	1.7738843
253	0xbf135ea2	-0.57566273
254	0xbea876fd	-0.3290328
255	0xbf3bd91f	-0.73378175

rnn.weight_ih_l0 f4 [100, 100]
0	0x3efd34f1	0.49454454
1	0x3efad791	0.4899259
2	0xbd67aa4c	-0.056558892
3	0xbdd58fb5	-0.104278006
4	0x3a289241	0.0006430485
5	0x3d0256be	0.031821005
6	0x3c263b75	0.010146012
7	0x3e7c2c50	0.24626279
8	0x3dd2dbfd	0.10295866
9	0x3f10e2e7	0.56596226
10	0xbec4115b	-0.3829449
11	0xbc1f7276	-0.009731879
12	0x3e0d82d7	0.13819443
13	0x3df76082	0.12078954
14	0xbe913661	-0.283618
15	0xbe6b8589	-0.23000158
16	0x3e126884	0.14297682
17	0xbb82330d	-0.003973371
18	0xbeb740cf	-0.35791633
19	0xbe27603b	-0.16345303
20	0x3ec164a6	0.377721
21	0xbddb0bb7	-0.10695594
22	0x3d874323	0.06604602
23	0xbe93919f	-0.28822038
24	0xbdd4fe06	-0.104000136
25	0x3dda4783	0.10658171
26	0x3e85cbf6	0.26132172
27	0x3d9dc3b2	0.077033415
28	0x3d1bec05	0.038066883
29	0xbda6fc07	-0.08153539
30	0xbe6425a6	-0.22279987
31	0x3e9d6853	0.30743656
32	0xbd173e75	-0.036924798
33	0x3e1275e3	0.14302783
34	0x3e45271e	0.19253203
35	0xbe0a1faf	-0.13488649
36	0xbe2d3d8a	-0.16918007
37	0xbe9a1211	-0.3009191
38	0x3f2365e8	0.6382737
39	0xbda927bb	-0.08259531
40	0xbeb63762	-0.3558913
41	0x3e1e7054	0.15472537
42	0xbd011c63	-0.031521212
43	0x3c614c76	0.01375114
44	0x3df2fc7d	0.118645646
45	0x3c497679	0.0122963125
46	0x3dd16db4	0.10226002
47	0xbdc19905	-0.09453014
48	0xbdb6c8ec	-0.089250416
49	0x3de3db5f	0.11125826
50	0x3f018b6f	0.50603384
51	0xbe6b10d9	-0.22955646
52	0x3e88fc7d	0.26755133
53	0xbe2dddc5	-0.1697913
54	0xbe9c675c	-0.30547607
55	0xbe0b7737	-0.13619696
56	0x3d9fdc11	0.07805646
57	0x3c01b0ff	0.007915734
58	0x3d8847af	0.066542976
59	0x3dec343c	0.115334004
60	0xbe97ba85	-0.2963449
61	0xbe3011f1	-0.17194344
62	0xbe15c629	-0.14626373
63	0xbe51575b	-0.2044348
64	0xbe6bf476	-0.23042473
65	0xbdfa2f66	-0.12216072
66	0x3e1acee2	0.15117982
67	0x3e08ea4f	0.13370632
68	0x3e56f74e	0.20992777
69	0xbdfb715d	-0.12277482
70	0xbe48f21b	-0.19623606
71	0x3e17fe4a	0.14843097
72	0x3efefd2d	0.49802533
73	0xbd633de5	-0.05547895
74	0xbe6e285e	-0.23257586
75	0xbc9491a1	-0.018135848
76	0x3d45947e	0.048237316
77	0xbe1e667a	-0.15468779
78	0x3e6fd3d4	0.2342065
79	0xbe270c8c	-0.1631338
80	0x3e3e179b	0.18563692
81	0xbe0fb5fe	-0.14034268
82	0xbd9d47db	-0.07679721
83	0xbdb6b318	-0.08920878
84	0xbe8490a7	-0.2589161
85	0xbe2ec251	-0.17066313
86	0xbdb0fae7	-0.08641606
87	0xbdd9ac45	-0.10628561
88	0xbdd380d9	-0.1032731
89	0x3e531da3	0.20616774
90	0xbe2c0013	-0.16796903
91	0xbdf7c698	-0.120984256
92	0xbd9547c6	-0.0728908
93	0x3d8986c4	0.06715158
94	0x3e7f5e74	0.24938375
95	0x3addc4f6	0.0016919661
96	0xbdda357c	-0.106547326
97	0x3d82b433	0.063820265
98	0xbea2f0f4	-0.31824458
99	0x3da6c0a5	0.08142213
100	0xbdb0dad8	-0.08635491
101	0xbdfa599f	-0.12224125
102	0x3eb877d7	0.3602893
103	0x3dccea5e	0.100056395
104	0xbe81205c	-0.2522
105	0xbe24985a	-0.16073743
106	0x3e12d429	0.14338745
107	0xbc94e7cb	-0.018176934
108	0xbe900c0f	-0.281342
109	0x3dc78786	0.09742646
110	0x3ddc2479	0.10749144
111	0x3e9093a9	0.28237656
112	0x3eab9f02	0.3351975
113	0x3cf7cd01	0.03024912
114	0xbd23b583	-0.039968025
115	0x3d5ef78b	0.054435294
116	0x3e245423	0.1604772
117	0xbb6795b8	-0.0035337042
118	0x3ea8750d	0.32901803
119	0xbc7f0c2b	-0.015566866
120	0xbe2c5a75	-0.16831382
121	0xbcc11429	-0.023569183
122	0xbea2db8e	-0.31808132
123	0xbdf81fc7	-0.12115436
124	0xbe6765dc	-0.2259745
125	0xbdcd1a8a	-0.100148275
126	0x3d9b6d36	0.0758919
127	0x3e930389	0.28713635
128	0xbd37e48e	-0.0448957
129	0xbc406905	-0.011743789
130	0x3acfc351	0.0015851056
131	0xbd39a364	-0.045321837
132	0xbd35cc05	-0.04438402
133	0xbe894fa7	-0.26818582
134	0x3d7ed7a5	0.062217373
135	0x3ecd4426	0.40091056
136	0x3d1cec1a	0.0383111
137	0xbdf4522f	-0.11929738
138	0xbe00dc41	-0.1258402
139	0x3db16569	0.086619206
140	0x3d9b1a9f	0.07573437
141	0xbe2b2803	-0.16714482
142	0xbe1bccce	-0.15214846
143	0xbd9a9718	-0.0754835
144	0xbdd417be	-0.10356091
145	0xbdfe9030	-0.12429845
146	0xbe2e9fbf	-0.17053126
147	0x3cc593f2	0.024118397
148	0xbe19a10f	-0.15002845
149	0xbecc20cf	-0.3986878
150	0x3e1010b2	0.14068869
151	0xbaf48153	-0.0018654264
152	0xbe5d1a5e	-0.2159209
153	0xbde4a5ec	-0.111644596
154	0xbe10a3de	-0.1412501
155	0xbe21d8b1	-0.15805317
156	0xbe440960	-0.19144201
157	0x3e85ac0d	0.26107827
158	0x3cbc066a	0.022952277
159	0xbd81cf00	-0.0633831
160	0x3e199da2	0.15001538
161	0xbe269165	-0.16266401
162	0x3dbd3fba	0.092406705
163	0xbe3da5b9	-0.1852025
164	0x3dd7d3fe	0.10538481
165	0xbd99d353	-0.0751101
166	0x3e339d4d	0.17540474
167	0xbd8fa657	-0.07014149
168	0xbe17ee16	-0.14836916
169	0x3d8688d7	0.06569069
170	0xbe768db4	-0.24077493
171	0x3dfb12f9	0.12259478
172	0x3e58d146	0.21173581
173	0xbdce6ac4	-0.10078958
174	0xbe029d8c	-0.12755412
175	0x3b806ff4	0.003919596
176	0xbe3d4365	-0.1848274
177	0xbbeee7f4	-0.0072908346
178	0xbe8c6833	-0.27423248
179	0x3e72549f	0.23665093
180	0xbe044ae4	-0.12919194
181	0xbe88407c	-0.26611698
182	0x3d738a3f	0.059458014
183	0x3dff0f59	0.12454099
184	0xbda92638	-0.08259243
185	0x3d34015e	0.043946616
186	0xbd611dbb	-0.054959994
187	0xbd5af7e3	-0.05345906
188	0xbd761057	-0.060074177
189	0xbca92456	-0.02064721
190	0x3dcf182d	0.10112033
191	0xbe335d44	-0.17516047
192	0xbe2cacc9	-0.16862787
193	0x3e076af3	0.13224392
194	0xbdec1109	-0.11526687
195	0x3df8913a	0.12137075
196	0x3de1a00b	0.11016854
197	0xbe7aa440	-0.24476719
198	0x3d9191a7	0.07107859
199	0xbcd65824	-0.026165076
200	0x3bc7e267	0.0060999873
201	0x3dbb74cb	0.09153136
202	0x3d2570e4	0.040390864
203	0xbdf5504e	-0.119782075
204	0x3e48bbe2	0.19602922
205	0x3d98e0c2	0.07464744
206	0xbd806434	-0.06269112
207	0x3e910fe2	0.2833243
208	0x3cd98a1a	0.02655511
209	0xbdabe233	-0.083927535
210	0xbe29a609	-0.16567244
211	0xbe938806	-0.28814715
212	0xbdec7460	-0.11545634
213	0xbe46edb1	-0.1942661
214	0x3dd25c4f	0.10271513
215	0xbebb9d8a	-0.3664363
216	0xbe9e9844	-0.30975544
217	0xbded548b	-0.11588391
218	0xbe7124e5	-0.2354923
219	0xbe650226	-0.22364101
220	0x3ece4abf	0.40291402
221	0xbe076c37	-0.13224874
222	0x3e79b127	0.24383985
223	0xbb18e5f0	-0.0023330413
224	0x3da96b66	0.08272438
225	0x3dc41ece	0.09576188
226	0xbdb716c1	-0.08939887
227	0xbee45f6b	-0.44604048
228	0xbdd16536	-0.102243826
229	0x3db943cb	0.090461336
230	0xbdd56812	-0.104202405
231	0xbd9752a5	-0.0738881
232	0xbc9fb2ae	-0.01949438
233	0x3d13f171	0.03611893
234	0xbea7d8d0	-0.32782602
235	0x3e04a7bf	0.12954615
236	0x3c24d3f3	0.010060298
237	0x3ce51f5e	0.027969059
238	0xbdc1c94e	-0.09462224
239	0xbe2f90df	-0.17145108
240	0x3d7086c4	0.058722273
241	0x3e9933e7	0.2992241
242	0x3e91225f	0.28346536
243	0xbe0a7594	-0.13521415
244	0xbd4d26bc	-0.050085768
245	0xbdd4a8c0	-0.10383749
246	0xbdf9f77f	-0.12205409
247	0x3edcdb72	0.43136173
248	0xbdbc9c60	-0.09209514
249	0x3e22010f	0.15820716
250	0xbde3a2bb	-0.11115023
251	0x3d9c531b	0.076330386
252	0x3e87088d	0.2637371
253	0xbe5149ee	-0.20438358
254	0xbea1d986	-0.3161127
255	0x3e03baa4	0.12864166

rnn.weight_hh_l0 f4 [100, 100]
0	0xbb1158b4	-0.0022178115
1	0xbd931bde	-0.071830496
2	0x3e2d9636	0.16951832
3	0x3ec696da	0.38786966
4	0x3e7985f0	0.243675
5	0x3f575118	0.84108114
6	0x3f11158b	0.56673497
7	0xbe313c84	-0.17308241
8	0xbec19c2d	-0.37814465
9	0x3eadce7d	0.339466
10	0xbeb9323e	-0.36171144
11	0x3dac6089	0.0841685
12	0xbdd4e60c	-0.103954405
13	0x3f0be25e	0.54642284
14	0x3ea5dade	0.32393545
15	0x3e9692fe	0.2940902
16	0xbe6aefa6	-0.22942981
17	0xbe07d272	-0.13263872
18	0x3f2150ee	0.63014114
19	0x3de051c4	0.109530956
20	0xbdaac8e1	-0.08339096
21	0xbe2a270b	-0.16616456
22	0xbded95b9	-0.11600823
23	0x3f941dee	1.1571634
24	0x3e43c656	0.19118628
25	0xbd801095	-0.06253163
26	0xbdaf7087	-0.08566385
27	0x3d90c24d	0.0706831
28	0x3ede5b17	0.4342887
29	0x3ed0c3b7	0.4077432
30	0x3dba3f16	0.09094064
31	0xbefb35e8	-0.49064565
32	0xbea2c654	-0.31791937
33	0xbe90c121	-0.28272346
34	0xbd7ee97c	-0.062234387
35	0xbe5a7a7b	-0.21335785
36	0x3d517b9f	0.051143285
37	0x3e905810	0.28192186
38	0x3d566471	0.052341882
39	0xbc574cfd	-0.013140914
40	0xbded5dcf	-0.11590158
41	0xbdcde81a	-0.100540355
42	0xbead45d6	-0.33842343
43	0xbee18244	-0.44044697
44	0xbe68ad9e	-0.2272248
45	0x3ebe5625	0.37175098
46	0xbdf3686a	-0.1188515
47	0xbd057a8a	-0.032587565
48	0x3eab5bb8	0.33468413
49	0x3e163236	0.14667591
50	0x3f8000df	1.0000266
51	0x3d449faa	0.04800383
52	0x3dbe66d9	0.092969604
53	0x3f2a029f	0.6641025
54	0x3e4a1231	0.19733502
55	0x3ce972e2	0.028497163
56	0xbdb40edc	-0.08791897
57	0xbf01deb5	-0.5073045
58	0xbea45bf6	-0.3210141
59	0x3f0b8960	0.5450649
60	0xbdd47419	-0.10373706
61	0x3e5fb304	0.21845633
62	0xbe860d01	-0.26181796
63	0xbea2d33e	-0.3180179
64	0xbe4cb38a	-0.19990364
65	0xbeb3172d	-0.3497862
66	0xbe4147a0	-0.18874979
67	0x3e46a385	0.19398315
68	0xbe3052e3	-0.17219119
69	0xbdcab8b8	-0.098985136
70	0x3ef39f54	0.47582495
71	0xbf023449	-0.5086103
72	0x3d9bff4b	0.07617053
73	0x3ec9edde	0.3943929
74	0x3996eef1	0.00028788255
75	0x3eda0e31	0.42588952
76	0x3eb84d58	0.3599651
77	0x3f0cb07e	0.54956806
78	0x3f306ab2	0.68912804
79	0xbf2a0dc2	-0.6642724
80	0xbe613dcd	-0.21996231
81	0xbd7529f8	-0.059854478
82	0x3eb52d1b	0.35385975
83	0x3e874058	0.26416278
84	0xbe37a58e	-0.17934248
85	0x3e61db1b	0.22056238
86	0xbe857971	-0.26069215
87	0xbaeebc0b	-0.0018214
88	0x3dea54b7	0.11441939
89	0x3e6c069b	0.23049395
90	0x3e6477fb	0.22311394
91	0x3c5f9a8a	0.013647685
92	0xbddee6dc	-0.10883877
93	0xbe98cc63	-0.29843435
94	0xbe80ac31	-0.25131372
95	0xbf947c7a	-1.1600487
96	0xbe5d32c7	-0.21601401
97	0x3dd2ec05	0.102989234
98	0xbe1e5919	-0.15463676
99	0xbd9018ed	-0.07036004
100	0x3eb74145	0.35791984
101	0xbea9c543	-0.3315831
102	0xbea385ca	-0.3193801
103	0x3ebf2e1a	0.3733986
104	0xbf2a916c	-0.66628146
105	0x3e44c7ae	0.19216797
106	0x3d7c78c0	0.061638594
107	0xbf355e83	-0.7084734
108	0xbdb2518d	-0.08706961
109	0xbf0d58d5	-0.5521367
110	0x3e3a7430	0.18208385
111	0xbeced6f3	-0.40398368
112	0x3d8eda01	0.06975175
113	0xbeff1672	-0.49821812
114	0x3f12f324	0.57402253
115	0x3e81b0c5	0.25330177
116	0xbea4daa4	-0.3219806
117	0x3d9bc7f3	0.07606497
118	0x3ebec13e	0.37256807
119	0x3e11a41b	0.14222758
120	0xbf006a8c	-0.5016258
121	0x3e62c551	0.22145583
122	0x3e2b41af	0.16724275
123	0xbddc8c0f	-0.107689016
124	0x3d3c585f	0.045982715
125	0xbe958432	-0.2920242
126	0x3e9b524d	0.30336228
127	0x3f043d65	0.5165618
128	0x3f0aa998	0.5416503
129	0x3ea0414b	0.31299815
130	0x3ea802d2	0.32814652
131	0x3e99362d	0.29924145
132	0xbe1af634	-0.15132982
133	0x3f15edc2	0.58565915
134	0x3e2678e5	0.16257055
135	0xbea8868c	-0.3291515
136	0x3de2e189	0.11078174
137	0xbbc56ec6	-0.006025168
138	0xbdc806c7	-0.09766918
139	0x3ea14091	0.31494573
140	0x3f8b0c51	1.0863134
141	0x3e04b96a	0.12961355
142	0x3d89a064	0.06720045
143	0x3e9a6e75	0.30162397
144	0xbf2cf757	-0.6756491
145	0xbd9b0bd7	-0.07570618
146	0x3de2d5b5	0.11075918
147	0x3eff85a9	0.49906662
148	0x3e6e6cec	0.23283738
149	0xbee3bd93	-0.4448057
150	0x3ee2cef7	0.44298527
151	0xbebb3c47	-0.36569425
152	0x3cd089ec	0.025456391
153	0xbee38a4e	-0.44441456
154	0xbee0ca93	-0.43904552
155	0xbded04d1	-0.11573184
156	0x3e13ee4c	0.14446372
157	0xbeba1f2d	-0.3635191
158	0xbcf085c8	-0.029360667
159	0xbf0f88bc	-0.56068015
160	0xbd8a4e88	-0.0675326
161	0x3e3d0f90	0.18462968
162	0x3f16f647	0.5896954
163	0xbeb687e0	-0.3565054
164	0x3e3e28c2	0.18570235
165	0x3e6d6b1b	0.23185389
166	0x3dec8a8c	0.11549863
167	0xbead908e	-0.3389935
168	0xbe81749a	-0.25284272
169	0x3dd221e7	0.102603726
170	0xbe6e734f	-0.23286174
171	0x3e18acf3	0.14909725
172	0x3edcf10a	0.43152648
173	0x3eb5cd33	0.35508117
174	0x3ed6dc1a	0.419648
175	0x3e86fb84	0.26363766
176	0x3ea0665f	0.31328103
177	0xbe68007d	-0.22656436
178	0xbe84cb2b	-0.25936255
179	0x3d18e880	0.037331104
180	0x3d00fc70	0.031490743
181	0x3d934989	0.0719176
182	0xbdc290f8	-0.09500307
183	0x3ea6fc68	0.32614446
184	0x3e2d5efd	0.16930766
185	0xbe37a4f2	-0.17934015
186	0xbc0aad36	-0.008464148
187	0x3e62d16a	0.22150198
188	0xbf2ecad4	-0.6827824
189	0x3f002e96	0.50071084
190	0x3edab740	0.42717934
191	0x3e308aeb	0.17240493
192	0xbf0746f0	-0.5284262
193	0x3dbde56a	0.09272273
194	0x3e0b4120	0.13599062
195	0xbecadda8	-0.39622235
196	0xbc7ec85f	-0.015550702
197	0x3ce28603	0.027651792
198	0x3e1ceecb	0.15325467
199	0xbed97882	-0.42474753
200	0x3e2f083d	0.17092986
201	0x3e2c4f99	0.16827239
202	0x3e1c3145	0.1525317
203	0x3f7ec814	0.99524045
204	0x3eccf870	0.40033293
205	0xbf2fcf61	-0.6867581
206	0x3e1ce4d0	0.1532166
207	0x3e83a72d	0.25713482
208	0xbdfdf8ef	-0.12400996
209	0x3e52a55f	0.20570897
210	0x3e63d05e	0.22247455
211	0xbe93ada4	-0.28843415
212	0xbe091cb6	-0.13389859
213	0xbe121ba3	-0.14268355
214	0x3e819371	0.253078
215	0xbdc16172	-0.09442414
216	0x3daa47f6	0.08314507
217	0xbe8bfa20	-0.27339268
218	0x3f262a60	0.6490841
219	0x3e420b36	0.18949589
220	0xbe191b43	-0.14951806
221	0xbd14c3cb	-0.036319535
222	0xbd859001	-0.06521607
223	0x3e850d90	0.2598691
224	0x3d6ac77e	0.057319157
225	0x3e6780b5	0.22607692
226	0x3d435e83	0.047697555
227	0x3de1e68f	0.11030304
228	0xbda84d2f	-0.082178466
229	0x3ea435a5	0.32072178
230	0x3d7a7e32	0.061155505
231	0x3cbb2026	0.022842478
232	0xbf2c26dc	-0.67246795
233	0xbe9638e2	-0.29340273
234	0x3e3f95eb	0.18709533
235	0x3d135a04	0.035974517
236	0xbe2560bf	-0.16150187
237	0xbcc37948	-0.023861542
238	0xbe1adb58	-0.15122736
239	0x3e914223	0.2837077
240	0xbce4df8a	-0.027938623
241	0x3e48e510	0.1961863
242	0xbe4b3180	-0.19843102
243	0xbdf45942	-0.11931087
244	0xbec30d91	-0.38096288
245	0xbce2411d	-0.027618939
246	0xbec9bdcf	-0.39402625
247	0x3db4846f	0.08814322
248	0x3e00beee	0.12572834
249	0x3f013e87	0.50486034
250	0xbe020374	-0.1269663
251	0x3e9c5d4e	0.30539936
252	0x3eccd629	0.4000714
253	0xbe393e31	-0.1809013
254	0xbdae0906	-0.08497815
255	0xbdae0693	-0.08497348

rnn.bias_ih_l0 f4 [100]
0	0x3e1897fe	0.1490173
1	0xbea032e8	-0.31288838
2	0x3e026db6	0.12737164
3	0x3d948889	0.072526045
4	0xbe4b7beb	-0.1987149
5	0xbe1dc334	-0.15406495
6	0x3d8c75f8	0.06858438
7	0x3d76cf7d	0.06025647
8	0xbef67986	-0.4813959
9	0xbe070804	-0.13186651
10	0xbe524142	-0.20532706
11	0x3bbdf37c	0.005796848
12	0xbe2a3463	-0.16621546
13	0x3e2e8831	0.1704414
14	0xbe8c1c81	-0.27365497
15	0x3e031a45	0.1280299
16	0x3da3cfc7	0.07998615
17	0xbecb555e	-0.39713567
18	0x3e09c8b7	0.13455473
19	0x3ecf8ede	0.40538687
20	0x3dd343b0	0.10315645
21	0x3dda11ba	0.10647912
22	0x3e28f698	0.16500318
23	0x3d9e8473	0.077401064
24	0x3e09c508	0.13454068
25	0x3e1a12b8	0.15046203
26	0x3dbff937	0.09373706
27	0x3eb682bc	0.35646617
28	0x3dab2ce1	0.08358169
29	0xbe997d9f	-0.29978654
30	0x3e8cbdec	0.2748865
31	0x3dad076f	0.084486835
32	0xbda69496	-0.08133809
33	0xbe44d042	-0.19220069
34	0xbe0b8f54	-0.13628894
35	0x3e8a0344	0.26955616
36	0x3e24fe1a	0.16112557
37	0x3e9c8026	0.3056652
38	0xbe96a4ca	-0.294226
39	0x3ed747dc	0.42047012
40	0xbdf9073f	-0.12159585
41	0xbdeb12f5	-0.11478225
42	0x3de46ddc	0.111537665
43	0x3e3b1689	0.18270315
44	0xbe67ddf9	-0.2264327
45	0xbe940bee	-0.28915352
46	0x3dc9573a	0.0983109
47	0xbbe9ed2a	-0.007138868
48	0xbe90406d	-0.28174153
49	0xbe58ac79	-0.21159543
50	0xbdd06de9	-0.10177214
51	0x3d2b14e8	0.041767985
52	0x3d263398	0.040576547
53	0x3d900ef2	0.070341006
54	0x3e2b0b68	0.1670357
55	0xbea344de	-0.3188848
56	0xbd22ac3a	-0.03971503
57	0x3eb16d37	0.34653637
58	0xbd6d617f	-0.057954308
59	0x3e6e8866	0.2329422
60	0xbe19aa58	-0.15006387
61	0xbe4adb93	-0.19810323
62	0xbe4cffc3	-0.2001944
63	0x3f0a9a87	0.5414204
64	0xbe61870f	-0.22024177
65	0xbdd1bd16	-0.102411434
66	0x3e81210b	0.25220522
67	0x3da0880e	0.0783845
68	0x3e6ec2ce	0.233165
69	0xbc4448d4	-0.011980254
70	0x3de35eb7	0.1110205
71	0xbf09a217	-0.53762954
72	0x3e20541b	0.15657084
73	0x3df9a23b	0.12189146
74	0x3d58e716	0.052954756
75	0xbdc86089	-0.097840376
76	0x3e00bb38	0.12571418
77	0x3e48998b	0.19589822
78	0x3caf28dc	0.021381788
79	0x3c9d0f4b	0.019172331
80	0xbe0b7868	-0.1362015
81	0x3c32ed7c	0.0109208785
82	0xbdbed6d8	-0.09318322
83	0xbe03ae5c	-0.12859482
84	0xbeacd926	-0.3375942
85	0x3ebc3103	0.36756143
86	0xbe84c2dd	-0.2592992
87	0xbd3cc27a	-0.046083905
88	0xbd205853	-0.039146733
89	0x3dec025b	0.11523887
90	0xbe6c43cf	-0.23072742
91	0xbed596b1	-0.4171653
92	0x3e2deb79	0.16984357
93	0x3e31ffbf	0.17382716
94	0x3df75c5b	0.12078162
95	0x3dfe9452	0.124306336
96	0xbebac203	-0.36476144
97	0xbc04a704	-0.00809646
98	0xbe9cd2dd	-0.30629626
99	0x3d36597d	0.044518936

rnn.bias_hh_l0 f4 [100]
0	0x3e0c3b18	0.13694417
1	0xbeafe9fe	-0.3435821
2	0x3e8c3844	0.27386677
3	0x3d6f44fe	0.058415405
4	0xbdb4178f	-0.08793556
5	0xbe2e27a4	-0.17007309
6	0x3d5ffdb3	0.054685306
7	0x3e5bb15c	0.21454376
8	0xbeaee230	-0.34156942
9	0xbdf07470	-0.11740959
10	0xbd99e62d	-0.07514606
11	0xbc20bd3b	-0.009810741
12	0xbdfcc882	-0.12342931
13	0x3e16addb	0.14714758
14	0xbe97c9db	-0.2964619
15	0x3e72d277	0.23713098
16	0x3e4cd5be	0.20003411
17	0xbecd129a	-0.40053254
18	0x3dea6000	0.11444092
19	0x3ecfb13c	0.40564907
20	0x3e242408	0.1602937
21	0x3e144021	0.14477588
22	0x3e08cd28	0.13359511
23	0x3e4cf678	0.20015895
24	0x3e44eab8	0.19230163
25	0x3e5831da	0.21112767
26	0x3e28ab2c	0.16471547
27	0x3e3340ab	0.17505138
28	0x3d45f833	0.048332404
29	0xbed76d59	-0.42075613
30	0x3e3b3c51	0.18284728
31	0x3e40c7dd	0.18826242
32	0xbe15976b	-0.14608543
33	0xbe904d4d	-0.28183976
34	0xbe06ae22	-0.13152364
35	0x3eb50d2e	0.35361618
36	0x3e05ba49	0.13059343
37	0x3e303d05	0.17210777
38	0xbe41c62e	-0.18923256
39	0x3edbbff0	0.42919874
40	0x3c3dfbe0	0.011595696
41	0xbdcd815b	-0.10034438
42	0x3c3b3032	0.011425065
43	0x3e3f18cf	0.18661807
44	0xbe490747	-0.19631682
45	0xbe9e2bd2	-0.30892807
46	0x3e0d8e5d	0.13823839
47	0xbdcfbe7c	-0.10143754
48	0xbe9518fd	-0.29120627
49	0xbe565301	-0.20930101
50	0xbe143b9d	-0.14475866
51	0x3dd17eae	0.1022924
52	0x3c2c46e0	0.010514945
53	0x3e1ff289	0.15619864
54	0x3dddb1f6	0.10824959
55	0xbe9efdea	-0.31053096
56	0xbda68bba	-0.081321195
57	0x3e914365	0.2837173
58	0xbe5982b0	-0.2124126
59	0x3e88df44	0.26732838
60	0xbdce64da	-0.1007783
61	0xbe8a5f8d	-0.27026024
62	0xbea0a483	-0.31375512
63	0x3ee93776	0.45550126
64	0xbe4af3d9	-0.19819583
65	0xbd8d3580	-0.0689497
66	0x3e7b7b17	0.24558674
67	0x3e1643f8	0.14674366
68	0x3eaac0a4	0.33350098
69	0x3d9eecf9	0.07760043
70	0x3bc35c18	0.005961906
71	0xbefb178d	-0.49041405
72	0x3e9f3f8b	0.31103167
73	0xba3bedd7	-0.0007168925
74	0x3d252f4c	0.04032831
75	0xbbfb6b22	-0.0076726833
76	0x3e2984f8	0.1655463
77	0x3e7f4512	0.24928692
78	0x3d39290d	0.045205165
79	0x3dea4411	0.11438764
80	0xbe11819c	-0.14209598
81	0x3d158f5a	0.036513664
82	0xba918fa0	-0.0011105426
83	0xbe311f7e	-0.1729717
84	0xbe8a8fa4	-0.27062714
85	0x3edd6373	0.43239936
86	0xbe4ce7f6	-0.20010361
87	0xbd863edd	-0.06554959
88	0xbd9c5d47	-0.07634979
89	0x3d25229c	0.04031621
90	0xbe0ac1d3	-0.135505
91	0xbe707840	-0.23483372
92	0x3e23dd67	0.16002427
93	0x3d1d92de	0.03847014
94	0x3c0b5c07	0.008505828
95	0x3e2b2547	0.16713439
96	0xbebcd3b1	-0.36880258
97	0x3e2a29ba	0.1661748
98	0xbec76407	-0.38943502
99	0x3d0f875b	0.035041194

decoder.weight f4 [27, 100]
0	0xbe846dd4	-0.25865042
1	0x3d23f2cf	0.040026482
2	0x3f1b35f4	0.606292
3	0xbe7b1664	-0.2452026
4	0x3e378ca5	0.17924745
5	0x3e0b2cfc	0.13591379
6	0xbeef8a60	-0.4678526
7	0xbe804b82	-0.25057608
8	0xbe23bcea	-0.15990034
9	0xbf1b6fdc	-0.6071756
10	0x3da5ca2b	0.08095201
11	0x3e43411b	0.19067805
12	0x3f288e2f	0.65841955
13	0xbe88dc79	-0.26730707
14	0xbd7391e6	-0.05946531
15	0x3d647ff1	0.055786077
16	0x3ec47c2a	0.3837598
17	0xbe9419eb	-0.28926024
18	0xbec947b6	-0.39312524
19	0xbecdd76c	-0.40203416
20	0x3e173abc	0.14768499
21	0x3eddc151	0.4331155
22	0x3ede15b4	0.43375933
23	0xbedc8e46	-0.43077296
24	0xbdf66e8c	-0.12032804
25	0xbd833d44	-0.0640817
26	0x3e98281d	0.29718104
27	0x3e360537	0.17775427
28	0x3eb8754f	0.36027
29	0x3d440105	0.047852535
30	0xbd1e150d	-0.038594294
31	0x3c61a350	0.013771847
32	0x3eb24a2f	0.34822223
33	0x3d17b57c	0.03703831
34	0xbe16251e	-0.14662597
35	0xbe98e0f2	-0.2985912
36	0x3d38e6ed	0.045142103
37	0x3ed356bd	0.41277114
38	0x3eadf429	0.33975342
39	0x3e8054a3	0.25064573
40	0x3e2836ec	0.16427201
41	0x3d99105c	0.074738234
42	0xbdd5f4a1	-0.1044705
43	0x3f4cbd1e	0.7997607
44	0x3ec8e45f	0.39236733
45	0xbe3e0918	-0.18558156
46	0xbed0573f	-0.40691563
47	0xbd65e3fd	-0.05612563
48	0xbeba90a9	-0.36438492
49	0xbedf668d	-0.43632928
50	0xbe70ba5b	-0.23508589
51	0x3e09b321	0.13447239
52	0xbf1e0aa4	-0.61734986
53	0x3f13ba86	0.5770649
54	0x3f0e6dc0	0.55636215
55	0xbf286c18	-0.6578994
56	0x3efee9dc	0.49787796
57	0x3e1d514c	0.15363044
58	0x3f327c9a	0.69721377
59	0x3eacf66f	0.33781764
60	0x3ed2ee3b	0.4119738
61	0xbe2fac3d	-0.17155547
62	0x3d18de25	0.03732123
63	0x3e9c0909	0.30475643
64	0xbe447bb6	-0.19187817
65	0x3f4bc208	0.79592943
66	0xbe4a4b86	-0.19755372
67	0xbdfc8d85	-0.1233168
68	0xbf046712	-0.5171977
69	0x3e8b9d46	0.27268428
70	0x3e694964	0.22781903
71	0xbf0a111f	-0.53932375
72	0xbebb3b4c	-0.36568677
73	0x3e778729	0.24172653
74	0xbe88c5e1	-0.2671347
75	0xbca42289	-0.020035999
76	0xbef25315	-0.47329012
77	0xbe9b30fe	-0.30310816
78	0xbe976363	-0.29568014
79	0xbe1c4259	-0.15259685
80	0x3e00a5a7	0.12563191
81	0xbe54405d	-0.20727678
82	0xbf3dcfa3	-0.74144953
83	0x3e1fc5ef	0.1560285
84	0xbd5f7974	-0.054559186
85	0xbee6035f	-0.44924447
86	0xbe38493b	-0.17996685
87	0x3e34f15f	0.17670201
88	0x3e41d091	0.18927218
89	0xbeae319c	-0.34022224
90	0xbd29a7e0	-0.041419864
91	0xbf350c06	-0.7072147
92	0x3ed5f531	0.4178863
93	0x3f0985e1	0.5371991
94	0x3dbcecc6	0.092248484
95	0x3e856461	0.26053146
96	0xbec3baed	-0.3822855
97	0xbe02868e	-0.12746641
98	0xbef2cf3a	-0.47423726
99	0xbe5fb692	-0.21846989
100	0x3e8c56b9	0.27409914
101	0x3ab30842	0.0013659077
102	0xbcf849f0	-0.030308694
103	0xbe05d2b1	-0.13068654
104	0x3d4680e9	0.048462782
105	0x3ed630d1	0.4183412
106	0x3e8fba0a	0.28071624
107	0x3dcc1910	0.09965718
108	0x3daeb0d4	0.08529821
109	0x3d3da715	0.04630192
110	0xbea74a2f	-0.32673785
111	0x3e973d21	0.29538825
112	0xbea659c9	-0.32490376
113	0x3e1c52c5	0.15265949
114	0x3ecb1047	0.39660856
115	0xbe9cff49	-0.30663517
116	0xbe42451f	-0.1897168
117	0xbd71e39b	-0.059054952
118	0xbe813663	-0.25236806
119	0x3e41dd68	0.18932116
120	0xbe642c53	-0.22282533
121	0xbe3545d8	-0.17702425
122	0xbe9bf541	-0.3046055
123	0x3e58aac9	0.211589
124	0x3f37159d	0.71517354
125	0x3a92d352	0.0011201894
126	0x3e4a87d6	0.1977838
127	0x3e3b0131	0.18262173
128	0x3ea701c0	0.32618523
129	0x3f11b503	0.56916827
130	0xbeb47ed7	-0.3525302
131	0xbe4229ff	-0.18961333
132	0xbef041a0	-0.46925068
133	0xbe579cde	-0.21055934
134	0xbd831a69	-0.06401522
135	0xbdd0e7c6	-0.10200457
136	0xbf0d60f6	-0.55226076
137	0x3f2e50af	0.68091863
138	0x3da63821	0.081161745
139	0xbefcaeda	-0.4935215
140	0x3e4fe43a	0.20301905
141	0xbf2eaff6	-0.68237245
142	0xbefb57a6	-0.49090308
143	0x3e708723	0.2348905
144	0x3d76348c	0.060108706
145	0xbdd572ec	-0.1042231
146	0xbeac23c1	-0.33621028
147	0x3d04d2ca	0.032427587
148	0x3d9e4e9b	0.077298366
149	0x3e5edf03	0.2176476
150	0x3edc1188	0.42982125
151	0xbf9af7ae	-1.2106836
152	0xbe5af9fb	-0.21384422
153	0xbf233421	-0.6375142
154	0x3e2a867a	0.16652861
155	0xbdd92f1f	-0.10604691
156	0x3ee46e0b	0.44615206
157	0xbe7f42b4	-0.24927789
158	0xbe1ca532	-0.15297392
159	0x3e9896d2	0.29802567
160	0xbe0bfcfc	-0.13670725
161	0xbe093531	-0.13399197
162	0x3eac6740	0.33672523
163	0x3ddf016f	0.10888945
164	0xbed50fff	-0.41613767
165	0x3eee30db	0.4652165
166	0x3d31f5e4	0.04344739
167	0xbeaa9983	-0.33320245
168	0xbed5a297	-0.4172561
169	0x3d828e22	0.06374766
170	0x3f37574b	0.71617573
171	0xbe823a3f	-0.25435063
172	0xbe5fbf4f	-0.21850322
173	0xbe58bc07	-0.21165477
174	0x3d29fbfd	0.04150008
175	0xbcc4ec7d	-0.024038548
176	0xbe1e3e66	-0.1545349
177	0x3db0f474	0.08640376
178	0x3e8c74dc	0.27432907
179	0xbed4b600	-0.41545105
180	0x3e5d6890	0.21621919
181	0x3f2f6385	0.6851123
182	0xba3e68ee	-0.00072635605
183	0xbed394f5	-0.41324583
184	0x3f08ff12	0.53514206
185	0xbe17c6b9	-0.148219
186	0x3b03314c	0.0020018397
187	0x3e4dbe73	0.20092182
188	0xbdad3b45	-0.084585704
189	0xbded86c5	-0.11597971
190	0x3e5eb387	0.21748172
191	0xbf15dfbb	-0.5854451
192	0xbf422624	-0.7583945
193	0xbf33a9fa	-0.7018124
194	0xbcbe3c38	-0.023222074
195	0x3caa32cb	0.020776173
196	0x3e60fb0b	0.21970765
197	0xbefd5749	-0.49480656
198	0xbe42708e	-0.18988249
199	0xbda9b019	-0.08285541
200	0xbe33edb8	-0.17571151
201	0x3f01af0f	0.50657743
202	0x3e84b5d1	0.25919965
203	0x3e51a063	0.20471339
204	0x3e789207	0.24274455
205	0x3e19e7a0	0.15029764
206	0xbe0cee6a	-0.13762823
207	0xbf3b09ce	-0.73061836
208	0xbd51c263	-0.051210772
209	0xbe3de36d	-0.18543787
210	0xbd93f106	-0.07223706
211	0xbecd3fa7	-0.40087625
212	0xbecf6b51	-0.40511563
213	0xbd54e7e6	-0.051978968
214	0x3de54652	0.11195053
215	0x3e4029bb	0.18765919
216	0xbf7c6fd6	-0.9860815
217	0x3db4a8ac	0.08821234
218	0x3ebc7740	0.3680973
219	0xbd6ba484	-0.05752994
220	0x3f14b84e	0.58093727
221	0xbec6822f	-0.38771197
222	0x3f2aa3ee	0.66656387
223	0x3e9fc75d	0.3120679
224	0x3edb3ea5	0.4282123
225	0x3ec8e7a5	0.3923923
226	0xbf15bcf0	-0.5849142
227	0xbf3121af	-0.6919202
228	0x3f330d8c	0.69942546
229	0x3ea939b4	0.33051836
230	0xbeb95af4	-0.36202204
231	0x3ca91c6b	0.020643434
232	0xbe4625de	-0.19350383
233	0xbdce36f8	-0.10069078
234	0x3ea222d6	0.31667203
235	0xbf0b6cb5	-0.5446275
236	0x3e70c88e	0.23514006
237	0xbde467d4	-0.11152616
238	0xbe060567	-0.13087998
239	0xbf5a9569	-0.8538423
240	0x3f11eade	0.56999004
241	0xbe2e6179	-0.1702937
242	0xbd7d894e	-0.061898522
243	0xbe3af442	-0.1825724
244	0x3e4ffe4b	0.20311849
245	0x3f0e7078	0.55640364
246	0xbe0dd4a6	-0.1385065
247	0xbe008452	-0.12550476
248	0xbe8cf3b1	-0.27529672
249	0x3e5e6b59	0.21720637
250	0xbd26ab85	-0.040690918
251	0x3ea6da63	0.3258849
252	0x3ecc464c	0.39897382
253	0x3e1a95b6	0.15096173
254	0x3e84b639	0.25920275
255	0x3ea4f7ca	0.32220298

decoder.bias f4 [27]
0	0xbd9e3f80	-0.077269554
1	0xbd331b6f	-0.043727335
2	0x3e1aae37	0.1510552
3	0xbd8c3e7c	-0.068478554
4	0xbdcc26c4	-0.099683315
5	0xbadd8c89	-0.0016902845
6	0x3e07900a	0.1323854
7	0xbd66af1e	-0.05631935
8	0x3f0dc1ee	0.5537404
9	0xbf1ddb06	-0.6166233
10	0xbc8dd900	-0.017315388
11	0x3ef3e5a6	0.47636145
12	0xbe8c78aa	-0.2743581
13	0xbd9ea646	-0.07746558
14	0x3df3434b	0.118780695
15	0xbe2c06d6	-0.16799483
16	0xbf4f2191	-0.80910593
17	0x3e900acb	0.28133234
18	0x3de21bec	0.11040482
19	0xbe728195	-0.23682244
20	0x3ee2101d	0.44152918
21	0xbdbdccb7	-0.09267562
22	0x3ddba0b8	0.10724014
23	0xbf1ab243	-0.60428256
24	0xbe3ab968	-0.1823479
25	0xbf415ff9	-0.7553707
26	0xbe327152	-0.17426041
