model.pth (torch, 2135 bytes, 6 tensors)

rnn.weight_ih_l0 f4 [4, 3]
00000000: bbcf 01bd cc84 e33e c120 08bf 119e 423c
00000010: 196b 4f3c c569 dd3e 849a 803c 6fe2 683d
00000020: 23df 77bf 7aa4 17bd 417c 023f b701 4dbf
-0.031692248 0.44437253 -0.5317498 0.011878506 0.012659811 0.43244758 0.015698679 0.05685657
-0.96824855 -0.03702209 0.50970846 -0.8008074

rnn.weight_hh_l0 f4 [4, 4]
00000000: 2acc 9e3f be61 3bbf fe1a c23e bc51 8bbf
00000010: be5a 0bbf 07e2 0d3f 8ec0 753e cf61 393f
00000020: 3bfe 13bf 696a eebd b152 963f 753d c83e
00000030: 0f93 8a3d f639 1bbf 2123 9f3e c872 213d
1.2406056 -0.7319602 0.37911218 -1.0884318 -0.54435337 0.55423015 0.23999235 0.7241487
-0.578098 -0.1164139 1.1743985 0.39109388 0.067663305 -0.60635316 0.3108149 0.039416105

rnn.bias_ih_l0 f4 [4]
00000000: 61ca e83e 50a8 4ebc 27f7 cc3e ac1f 453e
0.45466903 -0.012613371 0.40032312 0.19250363

rnn.bias_hh_l0 f4 [4]
00000000: 7c0f d93e 9c14 3ebe aa3e 003f 266d 563f
0.42394626 -0.1856255 0.5009562 0.837603

fc1.weight f4 [2, 4]
00000000: c5de 9d3e 0cd0 3fbe b903 d0be eb2e e7be
00000010: 8e9f 83bf 73b6 2c3f 408b 73be 387e 7c3f
0.30834022 -0.18731707 -0.4062784 -0.45152983 -1.0283067 0.67465895 -0.23783588 0.98630095

fc1.bias f4 [2]
00000000: 7ff2 5b40 928f 86c0
3.4366758 -4.2050257
