model.pth (torch, 70935 bytes, 6 tensors)

rnn.weight_ih_l0 f4 [128, 3]
0	0x3d706fc8	0.058700353
1	0x3ccbca7b	0.024876824
2	0x3c07d128	0.008289613
3	0xbc34abec	-0.0110273175
4	0xbce99395	-0.028512755
5	0x3da5c1af	0.08093583
6	0xbd18e011	-0.03732306
7	0x3d4e7d46	0.05041244
8	0x3cc8d03c	0.024513356
9	0x3dc330be	0.09530781
10	0x3d8676b2	0.06565608
11	0xbb8186a0	-0.003952816
12	0x3d242420	0.040073514
13	0x3d5af64e	0.05345755
14	0x3d534e86	0.051588558
15	0xb99169f4	-0.00027735496
16	0x3c5fb0d8	0.013653003
17	0x3d3948ea	0.045235552
18	0x3dc2c464	0.09510115
19	0xbd2f3b57	-0.0427812
20	0xbd98297f	-0.0742979
21	0xbd6ca220	-0.057771802
22	0x3dbc8b40	0.09206247
23	0x3da379a7	0.07982188
24	0xbdcbb7d0	-0.09947169
25	0xbc819c70	-0.015821666
26	0xbd15e0ad	-0.03659122
27	0xba41432b	-0.00073723745
28	0xbda94008	-0.08264166
29	0x3d088aa2	0.033335336
30	0x3d300893	0.042976927
31	0xbd8d845e	-0.06910013
32	0xbd3e2122	-0.046418317
33	0xbd82d8f5	-0.063890375
34	0x3b41282e	0.0029473412
35	0x3ca8b47c	0.020593874
36	0xbc8d0257	-0.01721303
37	0x3db06d1a	0.086145595
38	0xbcc704ec	-0.02429434
39	0x3d9c64a7	0.076363854
40	0xbdd3ef25	-0.103483476
41	0x3d951aad	0.072804786
42	0xbd37ae14	-0.04484375
43	0xbd55e9f8	-0.052225083
44	0x3cf5287c	0.029926531
45	0x3d270762	0.040778525
46	0xbcee21c7	-0.02906884
47	0xbda9588d	-0.08268843
48	0x3ceeae70	0.029135913
49	0xbc3095d9	-0.010777914
50	0xbd6b12e8	-0.057391077
51	0xbc85ab0b	-0.016316911
52	0xbd136974	-0.03598924
53	0x3d3e57ea	0.04647056
54	0x3ce07e55	0.02740399
55	0xbdc6222a	-0.09674485
56	0x3dabda5b	0.083912574
57	0xbd9dc0ce	-0.0770279
58	0xbd8a893d	-0.067644574
59	0xbd87b7f6	-0.06626885
60	0x3d1d6fb5	0.03843661
61	0x3cb185fc	0.021670334
62	0x3d815b17	0.06316202
63	0x3d6c0a79	0.057627175
64	0xbcfdbcb7	-0.030973775
65	0xbd247b6f	-0.040156778
66	0x3c3abe50	0.011397913
67	0x3d9f9425	0.07791928
68	0xbda31812	-0.079635754
69	0x3da166d2	0.078809395
70	0x3c788384	0.0151680745
71	0xbdb1fe9b	-0.0869114
72	0xbc09f52e	-0.008420272
73	0xbd1d747b	-0.038441163
74	0x3c3e2948	0.011606522
75	0x3d529889	0.051415
76	0x3d1c591b	0.038170915
77	0x3c239f28	0.009986676
78	0x3ce89939	0.028393375
79	0x3dc08c72	0.09401788
80	0x3cd4cee4	0.02597756
81	0x3b1a7a5a	0.0023571462
82	0x3dbee69f	0.09321331
83	0x3bfce5c0	0.007717818
84	0x3d03c464	0.032169715
85	0xbdd750ca	-0.10513456
86	0x3c19a208	0.00937701
87	0xbcf2987a	-0.029613722
88	0x3b8c8b07	0.0042890343
89	0x3d65804e	0.056030564
90	0xbdb13dad	-0.08654342
91	0xbb8edf33	-0.0043601035
92	0xbd5adba6	-0.05343213
93	0x3d9c901a	0.07644673
94	0x3d58b185	0.05290367
95	0x3d5ff302	0.05467511
96	0xbd3750f4	-0.044754937
97	0x3d804a2b	0.062641464
98	0x3d8d4ecb	0.06899794
99	0xbd580194	-0.05273588
100	0xbc6b81f3	-0.014374244
101	0x3bfb5dc0	0.007671088
102	0x3c95af0e	0.01827195
103	0x3d06eafd	0.032938946
104	0xbcd45d1c	-0.025923304
105	0xbda1f434	-0.07907906
106	0xbd8b8b02	-0.06813623
107	0x3b4e95a0	0.003152229
108	0x3c56de66	0.013114547
109	0xbd9e2b97	-0.07723158
110	0x3cf0b9b4	0.029385425
111	0x3d84d1da	0.064853385
112	0x3da073e7	0.078346066
113	0x3dae2865	0.085037984
114	0xbd5ed33d	-0.05440067
115	0xbd492726	-0.0491096
116	0xbda4a7cd	-0.08039818
117	0xbca42e70	-0.020041674
118	0x3d9c977c	0.07646081
119	0xbcd4769c	-0.025935464
120	0x3d9f0098	0.07763785
121	0x3d3e3001	0.0464325
122	0xba066480	-0.000512667
123	0x3d06bd53	0.032895397
124	0xbd915fa9	-0.07098324
125	0xbc1e3558	-0.009656273
126	0xbdac86f3	-0.08424177
127	0x3dc8f571	0.09812439
128	0x3cfb29cc	0.030659579
129	0xbcdf6579	-0.027270066
130	0x3d431a1d	0.047632325
131	0x3d883369	0.06650431
132	0xbd65523e	-0.055986635
133	0xbd1a4229	-0.03766075
134	0x3b9dfdd0	0.0048215166
135	0x3d379c0d	0.044826556
136	0x3baf3ee6	0.0053480742
137	0xbc524e38	-0.012836032
138	0x3d35fe5d	0.044432033
139	0x3d6b9177	0.057511773
140	0x3da27be1	0.07933784
141	0xba7ac651	-0.00095662946
142	0x3d931d16	0.07183282
143	0xbce67cdc	-0.02813571
144	0xbda6c184	-0.08142379
145	0x3d4b158b	0.04958109
146	0xb94c6800	-0.00019493699
147	0xbd214af6	-0.03937813
148	0xbd85d609	-0.065349646
149	0x3be18a60	0.0068829507
150	0xbdb55226	-0.08853559
151	0x3d59cfa1	0.053176526
152	0x3d3f0b72	0.046641774
153	0x3cb315ee	0.021861043
154	0x3cea568e	0.028605726
155	0xbda2ee3d	-0.079555966
156	0x3c922304	0.017838962
157	0xbd2a7a52	-0.04162056
158	0x3d7c6f9a	0.06162987
159	0xbd79c840	-0.06098199
160	0x3d94f8b3	0.07273998
161	0xbdb4c766	-0.08827095
162	0x3da05bf9	0.078300424
163	0xbc9b8aa8	-0.018987015
164	0xbd032e09	-0.032026324
165	0xbc1b708e	-0.009487284
166	0x3dc530d6	0.09628455
167	0x3d4102e2	0.04712189
168	0xbd90c099	-0.07067985
169	0x3d10901f	0.035293695
170	0x3d15cf4c	0.036574647
171	0x3d7858d6	0.060631596
172	0x3c2c125d	0.010502425
173	0x3c8ba980	0.017048597
174	0x3d56a31b	0.052401643
175	0x3d774ae8	0.06037417
176	0xbda7e1fe	-0.081974015
177	0xbd9a0196	-0.07519834
178	0xbc09e4df	-0.0084163835
179	0xbd153887	-0.03643086
180	0xbcc59480	-0.024118662
181	0xbd629bbb	-0.055324297
182	0xbd9d37a6	-0.0767663
183	0x3d7fa68d	0.062414695
184	0xbd8decaa	-0.06929906
185	0x3d936edb	0.071988784
186	0xbcb8c456	-0.022554558
187	0xbd518583	-0.051152717
188	0xbd5710ea	-0.052506365
189	0x3ce4d122	0.027931754
190	0xbd8218e0	-0.06352401
191	0xbd051d82	-0.032498844
192	0x3c148725	0.009065424
193	0xbcd4d57a	-0.0259807
194	0xbcc6cb88	-0.024266973
195	0xbdd9681b	-0.1061556
196	0x3cdee17a	0.027207125
197	0x3d1a22fe	0.037631027
198	0xbcf174e6	-0.029474687
199	0xbdb1aa4d	-0.086750604
200	0xbd935d1a	-0.07195492
201	0x3dbbab76	0.09163563
202	0xbdb0eb46	-0.08638625
203	0x3da410e3	0.080110334
204	0x3d116844	0.035499826
205	0x3db878ae	0.09007393
206	0x3da96b61	0.08272434
207	0x3ce0e8c3	0.02745474
208	0x3d91ca9c	0.07118723
209	0x3c77ebf8	0.015131943
210	0x3cb7d4ca	0.022440333
211	0x3d0d9247	0.03456333
212	0x3cce8ef4	0.02521465
213	0x3bf18baf	0.007371388
214	0xbcee7e67	-0.029113008
215	0x3c969f14	0.018386401
216	0xbd714304	-0.0589018
217	0xbb872f4c	-0.0041255113
218	0x3d94db4f	0.07268392
219	0x3d4c4cef	0.049878057
220	0x3ba96e12	0.005170592
221	0x3d5c421e	0.05377399
222	0xba7c4938	-0.00096239476
223	0xbd489baf	-0.048976596
224	0x3da8f26d	0.08249364
225	0x3dc19e4a	0.09454019
226	0x3db0ff96	0.08642499
227	0x3ceee954	0.029163994
228	0xbd2fb660	-0.042898536
229	0xbcb01c19	-0.021497773
230	0x3dab6d25	0.08370427
231	0x3dafa90f	0.08577167
232	0xbcbd0572	-0.023073886
233	0x3d8a7e89	0.06762416
234	0xbdbd7c95	-0.09252278
235	0x3d3f07b8	0.04663822
236	0x3d3bed7e	0.045880787
237	0x3d8d97f9	0.06913752
238	0xbdbbdd02	-0.09173013
239	0xbd134f6e	-0.035964422
240	0x3d0f71c5	0.03502061
241	0x3cb5e3f1	0.022203417
242	0x3d8f445b	0.0699546
243	0xbd7aab1a	-0.06119833
244	0x3d944ecf	0.07241594
245	0x3d591902	0.053002365
246	0x3d0cf098	0.034409136
247	0x3d234e46	0.03986957
248	0x3c358e88	0.011081345
249	0x3c63d268	0.013905145
250	0x3ac6cbde	0.0015166958
251	0xbd687139	-0.056748603
252	0x3cfcbfab	0.030853113
253	0x3da05b06	0.07829861
254	0x3d041104	0.03224279
255	0xbd848869	-0.06471331

rnn.weight_hh_l0 f4 [128, 128]
0	0x3cff3828	0.031154707
1	0xbc2333b1	-0.009961055
2	0xbd4ec81b	-0.050483804
3	0x3c4889bd	0.012239871
4	0x3d9a1963	0.075243734
5	0xbca6ab3a	-0.020345319
6	0x3d8cff8f	0.068846814
7	0xbd582555	-0.052769978
8	0xbdac4846	-0.084122226
9	0xbcc910ce	-0.024544146
10	0xbca16425	-0.019701073
11	0xbc2c91a1	-0.0105327675
12	0x3d39d50f	0.045369204
13	0x3d3e478b	0.046454947
14	0xbdb8afd2	-0.0901791
15	0xbbdfdc51	-0.0068316837
16	0xbbf1dd91	-0.007381149
17	0x3d5f44b1	0.05450887
18	0xbd56731b	-0.052355867
19	0x3cdc234b	0.026872298
20	0x3d7563d2	0.05990965
21	0xbd0de1e0	-0.03463924
22	0xbd02fe0a	-0.03198055
23	0xbc248b28	-0.010042943
24	0xbd7bc805	-0.06147005
25	0x3a0e50b9	0.0005428899
26	0x3d88f2df	0.06686949
27	0xbd5669c2	-0.052346952
28	0xbd7663c9	-0.060153756
29	0x3c3feed4	0.011714656
30	0xbd2b32b1	-0.04179639
31	0xbc9927a6	-0.018695664
32	0xbc6855a5	-0.0141805755
33	0x3d9501a4	0.072757035
34	0x3cb9c82a	0.022678453
35	0x3d88e968	0.06685144
36	0xbc2b303b	-0.010448511
37	0xbcf4640a	-0.029832859
38	0x3dab7c35	0.083733
39	0xbd86ae9a	-0.06576271
40	0x3d8ccbe0	0.068748236
41	0xbda0af90	-0.07845986
42	0x3cc9f090	0.024650842
43	0x3d041b48	0.03225258
44	0x3cc5010b	0.024048349
45	0xbd501f52	-0.05081112
46	0x3cc24e9c	0.023719124
47	0x3d1cd9b7	0.038293567
48	0xbca65120	-0.020302355
49	0x3d98d7e1	0.07463051
50	0x3a83e5c3	0.0010062981
51	0xbd7eaf11	-0.062178675
52	0xbd4908ee	-0.04908078
53	0x3d81b46e	0.06333242
54	0xbd76af5e	-0.060225837
55	0x3d806c04	0.06270602
56	0x3cebfbc9	0.028806584
57	0x3d23d93f	0.040002104
58	0xbc8d5d0f	-0.017256288
59	0xbd6da40f	-0.058017787
60	0xbd0f613b	-0.035004836
61	0x3bccf952	0.0062553072
62	0xbda31c65	-0.079644
63	0x3d7acd58	0.061230987
64	0xbcceeee6	-0.0252604
65	0xbd70128a	-0.05861143
66	0x3b9d38ed	0.004798046
67	0x3d25409d	0.040344823
68	0xb9ad2ee3	-0.00033032065
69	0xbce78d04	-0.028265484
70	0x3c321b02	0.010870697
71	0x3d4317cc	0.047630116
72	0xbd5e71a9	-0.054307614
73	0xbcc0a278	-0.023514971
74	0x3bc0df33	0.0058859824
75	0x3dad9044	0.08474782
76	0x3d69972b	0.05702893
77	0x3b73c83e	0.003719821
78	0xbd95a4e5	-0.07306842
79	0xbd73a55d	-0.059483875
80	0xbd8bd253	-0.068272255
81	0xbcbaceb4	-0.022803642
82	0x3d10c5bb	0.03534482
83	0x3daaea91	0.08345521
84	0x3ce5309c	0.02797728
85	0xbd334f37	-0.043776717
86	0x3d8189d4	0.06325117
87	0x3c0d51af	0.008625432
88	0x3d0e571d	0.034751046
89	0x3d97ddc6	0.07415347
90	0xbdc3296f	-0.09529387
91	0xbdb42e69	-0.087979145
92	0xbb63d8d3	-0.0034766688
93	0xbc15d860	-0.009145826
94	0x3d9ee504	0.07758525
95	0xbb24024d	-0.0025025785
96	0xbb9d6f0a	-0.0048044967
97	0x3da2fc3f	0.079582684
98	0x3d94430b	0.0723935
99	0x3d96312d	0.07333598
100	0xbabf7021	-0.001460556
101	0x3d2e1a21	0.042505387
102	0xbc012f00	-0.007884741
103	0xbc208172	-0.009796487
104	0xbdaf1d3a	-0.085504964
105	0x3d9c524d	0.07632885
106	0xbc2ab804	-0.010419849
107	0x3d40801b	0.04699717
108	0x3d5ddbcd	0.054164696
109	0x3c03ccb5	0.008044411
110	0xbcf7529a	-0.030190755
111	0x3dadf96d	0.0849484
112	0xbd9d806e	-0.07690512
113	0xbd79cb46	-0.060984872
114	0x3b4a9315	0.0030910422
115	0xbd8b0d72	-0.06789674
116	0xbc8dbf28	-0.017303064
117	0xbd4e5c98	-0.050381273
118	0xbd80fcc1	-0.06298209
119	0x3cab7c3a	0.02093326
120	0xbd01eb85	-0.03171875
121	0xbcbc51a1	-0.022988142
122	0xbda1b3fc	-0.078956574
123	0x3ce8e68d	0.028430248
124	0xbd80440d	-0.0626298
125	0xbda3c49d	-0.079964854
126	0xbd137ac5	-0.036005754
127	0xbda8af1e	-0.08236526
128	0x3d9014ba	0.07035203
129	0x3c56549b	0.013081695
130	0xbb88045a	-0.0041509094
131	0x3db43ce1	0.08800674
132	0x3dbaaaa8	0.09114581
133	0x3d64f7b8	0.055900306
134	0xbc88790d	-0.016659284
135	0xbdab5b0b	-0.083669744
136	0xbd65115d	-0.055924762
137	0x3d93d8e6	0.072191045
138	0x3d1cd30b	0.038287204
139	0xbd9334c1	-0.071877964
140	0x3d4f9463	0.050678622
141	0xbcbcd488	-0.023050562
142	0x3d1ad50f	0.037800845
143	0xbce84e41	-0.028357627
144	0x3da53646	0.080669925
145	0xbc148848	-0.009065695
146	0xbd7e09e9	-0.06202117
147	0x3d830883	0.06398108
148	0x3d798234	0.060915187
149	0x3ca2daae	0.019879665
150	0xbcdb50c5	-0.026771912
151	0xbc2bd914	-0.010488767
152	0x3c9115ab	0.017710527
153	0x3d90dcc1	0.070733555
154	0x3d63bf75	0.05560251
155	0x3b40a946	0.002939777
156	0x3bce6cc7	0.0062995884
157	0xba31a640	-0.00067767873
158	0xbd4afea1	-0.04955924
159	0x3dbc715b	0.09201308
160	0x3d062ac7	0.03275564
161	0xbacdb9a9	-0.001569559
162	0x3d893605	0.066997565
163	0xbda0e217	-0.07855623
164	0xbcd41aff	-0.025891779
165	0x3d812368	0.06305581
166	0xbccae084	-0.02476526
167	0xbd579f74	-0.0526423
168	0x3cc5b08e	0.02413204
169	0xbc4cc531	-0.012498186
170	0x3cda896b	0.026676854
171	0x3c2c38e3	0.01051161
172	0x3cd2e3f5	0.025743464
173	0xbdb0a0c4	-0.086244136
174	0x3d717a1b	0.05895434
175	0xbcb55066	-0.022133064
176	0xbcd52f06	-0.0260234
177	0x3d9cf70c	0.07664308
178	0xbd3d9ff2	-0.046295114
179	0xbd9237e1	-0.07139564
180	0xbd16ab32	-0.03678436
181	0xbd51eb6b	-0.051249903
182	0x3cb6da02	0.022320751
183	0x3d52e9ca	0.05149249
184	0x3d938d38	0.0720467
185	0xbd153d70	-0.036435544
186	0x3b77a173	0.003778544
187	0x39e96634	0.0004451737
188	0x3d246b57	0.04014143
189	0xbc8aff65	-0.016967485
190	0x3cd9c1db	0.026581695
191	0x3da0d20c	0.07852563
192	0xbd78751e	-0.060658567
193	0x3b581894	0.0032973634
194	0xbd9e670e	-0.077345
195	0x3d8fb7bf	0.07017469
196	0x3d5651f3	0.052324247
197	0x3cd9c363	0.026582425
198	0x3d8ecabd	0.06972263
199	0xbd4e9d8e	-0.050443225
200	0xbd592807	-0.05301669
201	0x3d89560e	0.06705867
202	0xbc9aeda3	-0.018912142
203	0x3c615dad	0.013755244
204	0x3d094fd3	0.033523392
205	0x3d8649b9	0.0655703
206	0xbd887c3e	-0.06664322
207	0x3d461f57	0.04836973
208	0xbc0ee32b	-0.008721153
209	0x3cde7b74	0.027158476
210	0x3da77ad8	0.081777275
211	0x3d64f719	0.055899713
212	0xbcf99c16	-0.030469935
213	0xbc937ae9	-0.018002944
214	0x3da9fc2a	0.083000496
215	0x3d5aad90	0.05338818
216	0x3dabaa4b	0.0838209
217	0xbdc0dcdd	-0.09417126
218	0xbd8f495f	-0.06996416
219	0xbd072056	-0.032989822
220	0x3c137fea	0.009002665
221	0xbd32f3c7	-0.043689515
222	0x3a939397	0.0011259195
223	0x3dabd2a8	0.08389789
224	0xbd85dd62	-0.06536366
225	0xbd58985f	-0.052879687
226	0xbd14d7db	-0.03633867
227	0x3c2711b8	0.010197096
228	0x3d8f811a	0.07007046
229	0x3dc1b2b5	0.09457914
230	0xbda1d4f4	-0.07901946
231	0xbd6993be	-0.057025664
232	0x3d0ce3bf	0.034396883
233	0xbd85a92e	-0.06526409
234	0xbdb94080	-0.090455055
235	0x3d26ff05	0.04077055
236	0x3d6d0aec	0.057871744
237	0xbd6ef06c	-0.058334753
238	0xbda79a9c	-0.08183786
239	0xbc7c58ff	-0.015402078
240	0xbd57f7ef	-0.052726682
241	0xbd9085b4	-0.07056752
242	0x3cfa0fb7	0.030525072
243	0x3c1952ec	0.009358149
244	0xbd15b1f1	-0.03654665
245	0x3bda2fc2	0.006658525
246	0x3d44be7f	0.048033234
247	0xbccd3872	-0.02505133
248	0xbd8c358d	-0.068461515
249	0xbdb2235b	-0.0869815
250	0xbd85511b	-0.0650961
251	0x3cb26d8d	0.021780754
252	0xbdb241a6	-0.08703928
253	0x3d610e92	0.054945536
254	0xbc80c606	-0.015719425
255	0x3c856236	0.016282182

rnn.bias_ih_l0 f4 [128]
0	0x3da18afc	0.07887837
1	0x3b889c33	0.004169011
2	0xbd5a490c	-0.05329232
3	0xbd8eae64	-0.06966856
4	0x3d3192b2	0.04335279
5	0x3d88f48f	0.06687271
6	0x3d9a7bf4	0.075431734
7	0xbce7cfbf	-0.028297303
8	0xbd48ca3a	-0.049020983
9	0xbcfb43f6	-0.030672055
10	0x3d1bf134	0.038071826
11	0x3db2e5b4	0.08735219
12	0xbd425dfb	-0.047452908
13	0xbdaa57e3	-0.08317544
14	0xbca2561d	-0.019816453
15	0xbceb7738	-0.028743371
16	0x3d13bdb8	0.0360696
17	0xbd51784e	-0.051140122
18	0x3a5a1b00	0.00083200634
19	0x3d3808a7	0.044930127
20	0xbd38f670	-0.045156896
21	0x3ce63910	0.028103381
22	0x3d743fd7	0.059631195
23	0x3db3f0f2	0.08786191
24	0xbc5fe3ac	-0.013665121
25	0xbd9c4154	-0.07629648
26	0xbd127d42	-0.035763986
27	0x3d9dc114	0.07702842
28	0x3d8cdae4	0.068776876
29	0xbd16ed43	-0.036847364
30	0x3d1c9252	0.03822548
31	0x3cbcb507	0.02303554
32	0x3be68813	0.0070352643
33	0xbc1ef04f	-0.009700849
34	0xbc8154ff	-0.0157876
35	0x3c8959ee	0.016766515
36	0x3d8bae14	0.06820312
37	0xbda312ac	-0.07962546
38	0xbd5b8ac3	-0.05359913
39	0x3d1f6d37	0.038922515
40	0x3cc49f70	0.024001807
41	0xbd59ba35	-0.053156096
42	0xbd6558f6	-0.055993043
43	0x3d3fe8f8	0.046853036
44	0xbc437348	-0.011929341
45	0xbcea8e2f	-0.028632252
46	0x3c78c40e	0.015183462
47	0xbb630f5a	-0.0034646601
48	0x3d157fa7	0.036498692
49	0x3d49de8c	0.049284503
50	0xbd416e9e	-0.047224633
51	0x3c93fd01	0.018064978
52	0xbd24d884	-0.040245548
53	0xbc3d16c7	-0.011541075
54	0x3cd34316	0.025788825
55	0xbce82f72	-0.028342936
56	0xbd9f66cc	-0.07783279
57	0xbc1b6637	-0.009484819
58	0x3b93dc6d	0.004512361
59	0xbd8809c6	-0.06642489
60	0x3d830626	0.06397657
61	0x3da0e50b	0.078561865
62	0xbcbb04a7	-0.022829367
63	0xbda64316	-0.081182644
64	0x3d9d1271	0.07669533
65	0x3d5b724c	0.0535758
66	0x3be69def	0.00703787
67	0xbd1b7b97	-0.03795966
68	0xbd985b8d	-0.07439337
69	0xbc5bc4f5	-0.013413657
70	0x3d2fef61	0.0429529
71	0x3cc40ebc	0.023932807
72	0xbc98fd36	-0.018675428
73	0xbc93e6d6	-0.018054407
74	0xbda04c55	-0.07827059
75	0x3d1fa3aa	0.03897444
76	0xbd5bc973	-0.053658914
77	0xbda63fc8	-0.08117634
78	0x3d88e8e2	0.06685044
79	0x3db46fc5	0.08810381
80	0xbdac1e35	-0.08404199
81	0x3d3343a0	0.043765664
82	0x3bba8ad1	0.0056928177
83	0xbd059931	-0.032616798
84	0x3d7f4416	0.06232079
85	0xbc0de978	-0.00866162
86	0x3ca49b2d	0.020093525
87	0x3d87f88b	0.06639203
88	0x3c7234a4	0.014783058
89	0xbd3780c7	-0.044800546
90	0xbc00021a	-0.007813001
91	0xbd4bfc3a	-0.04980109
92	0x3ae4dbcd	0.0017460525
93	0xbd7a5b23	-0.06112207
94	0xbdab261a	-0.08356877
95	0xbbe4b4f8	-0.006979581
96	0x3d2c0a5a	0.04200206
97	0x3d30fcc9	0.043209825
98	0xbd7c7395	-0.061633665
99	0xbd7f03fc	-0.06225966
100	0xbd02d62a	-0.031942524
101	0xbd9a9489	-0.07547862
102	0x3cf2becc	0.029631995
103	0x3d8bcb6f	0.06825911
104	0x3db29707	0.087202124
105	0xbc043c75	-0.008071055
106	0x3d459887	0.048241165
107	0xbd1edf40	-0.038787127
108	0xbd939e3a	-0.07207914
109	0xbcd576bd	-0.026057595
110	0xbd574bc2	-0.052562483
111	0x3cfcc01b	0.030853322
112	0x3c8ce75e	0.017200168
113	0x3be2e803	0.0069246306
114	0x3ba2dc5d	0.004970117
115	0x3d9e1147	0.07718139
116	0xbd8914f1	-0.066934474
117	0x3d476127	0.048676636
118	0xbd3c2cf9	-0.045941327
119	0x3cf2c14d	0.029633189
120	0x3d5bff87	0.053710487
121	0xbd25a017	-0.040435877
122	0x3d887767	0.06663399
123	0x3cb99f95	0.022659102
124	0xbb8cee33	-0.0043008565
125	0x3c801129	0.015633183
126	0x3d19a60f	0.03751188
127	0x3c73d8bf	0.014883219

rnn.bias_hh_l0 f4 [128]
0	0xbda714c4	-0.081582576
1	0x3db122c8	0.08649212
2	0x3c8f204d	0.017471457
3	0xbcaab1eb	-0.020836791
4	0x3c347c6d	0.011015994
5	0xbd96278b	-0.07331761
6	0x3db10878	0.086441934
7	0xbd96cb70	-0.073630214
8	0x3d927366	0.07150917
9	0x3ca85c1b	0.020551732
10	0x3c93a9c3	0.018025285
11	0x3cbb1c9d	0.022840792
12	0xbc3cec75	-0.011530985
13	0x3cbc591f	0.022991715
14	0x3da0af74	0.07845965
15	0x3dbe8614	0.09302917
16	0x3d836739	0.064161725
17	0x3c165e84	0.009177808
18	0x3cd7e4a1	0.026354136
19	0xbd0c1f9a	-0.034209825
20	0xbda8afb9	-0.082366414
21	0x3d58419e	0.052796952
22	0x3d3cb769	0.04607335
23	0x3d2f4c34	0.042797282
24	0xbd0e8e9b	-0.034803968
25	0xbd20ffc2	-0.03930641
26	0x3cdf6ce7	0.027273608
27	0xbd79d221	-0.06099141
28	0x3d0fde24	0.03512396
29	0xbdadd22e	-0.08487354
30	0xbd9f7967	-0.077868275
31	0x3d8f7b99	0.07005996
32	0x3d0efb17	0.034907427
33	0xbd6089da	-0.054818965
34	0x3d53b0cb	0.051682275
35	0x3d2cc307	0.04217818
36	0x3da2dae4	0.07951906
37	0xbc5eae79	-0.013591402
38	0x3cc99266	0.024605941
39	0xbdaeb789	-0.085311
40	0x3d56ab5d	0.05240952
41	0xbd9f125a	-0.07767172
42	0xb954f80d	-0.00020310302
43	0x3daced9e	0.084437594
44	0xbd82cafa	-0.06386371
45	0xbd1ce2fb	-0.038302403
46	0x3d33ee07	0.043928172
47	0xbda5e5a5	-0.08100442
48	0x3d9b6c12	0.07588972
49	0x3cf75347	0.030191077
50	0xbd9b83aa	-0.07593472
51	0x3d6308d9	0.05542836
52	0x3d0d0043	0.034424078
53	0x3cf99f99	0.03047161
54	0xbd154583	-0.036443245
55	0x3cf8b2db	0.030358722
56	0xbd420fad	-0.04737823
57	0xbd491e6a	-0.04910127
58	0xbb8fedb8	-0.004392352
59	0x3c18213b	0.0092852665
60	0xbda6a3e7	-0.08136731
61	0xbca8a934	-0.020588495
62	0x3c92c6a1	0.01791698
63	0x3d2c3872	0.042046018
64	0x3d47d3f5	0.048786122
65	0x3cb7d1a0	0.022438824
66	0x3b32fd8e	0.0027311775
67	0xbd8417f7	-0.064498834
68	0xbd4bfa7a	-0.04979942
69	0x3d18e9a2	0.037332185
70	0xbd9db4f2	-0.07700528
71	0x3c7b3eb8	0.0153347775
72	0x3da0f917	0.0786001
73	0xbd67d515	-0.056599695
74	0xbd865b65	-0.06560401
75	0xbc3e684a	-0.011621544
76	0xbd33b0f1	-0.043869916
77	0x3d8d662a	0.06904252
78	0xbd2ba703	-0.04190732
79	0x3cad725d	0.021172697
80	0xbd534518	-0.051579565
81	0x3cbfdd89	0.023421066
82	0xbd362da2	-0.044477113
83	0xbbb95170	-0.00565546
84	0xbda33b95	-0.07970349
85	0x3d19541a	0.03743372
86	0xbdb23f2a	-0.08703454
87	0xbd9e9a4e	-0.07744275
88	0x3c86654e	0.016405728
89	0xbcb06408	-0.021532074
90	0x3d983e72	0.074337855
91	0x3dad7046	0.0846868
92	0x3d890eac	0.066922516
93	0x3c55220f	0.0130086085
94	0x3c816b97	0.015798373
95	0xbd04bd86	-0.032407306
96	0xbd11c1d0	-0.035585225
97	0x3db962d7	0.09052055
98	0xbd06212f	-0.03274649
99	0xbd8b2db7	-0.06795829
100	0xbd99c192	-0.07507624
101	0x3d0c11e6	0.034196757
102	0xbd9da53e	-0.07697533
103	0x3d8fd8c9	0.0702377
104	0xbbbbdd2b	-0.0057331524
105	0xbbe7053a	-0.0070501836
106	0x3da4e70c	0.08051881
107	0x3cada179	0.02119516
108	0x3dbae084	0.09124854
109	0x3cb6ef07	0.022330774
110	0x3c675670	0.014119729
111	0xbd095ec9	-0.03353766
112	0xbc51d8a2	-0.012807997
113	0x3d89aeaa	0.06722768
114	0xbd965d0e	-0.073419675
115	0x3da0cee7	0.078519635
116	0xbd81b2fc	-0.06332967
117	0x3ccc4cad	0.024938906
118	0xbc0128e4	-0.007883284
119	0x3d12edb5	0.035871226
120	0xbd8df235	-0.06930963
121	0xbc837a13	-0.01604942
122	0xbd62dbab	-0.055385273
123	0xbb8cecea	-0.0043007033
124	0xbcc2425c	-0.023713283
125	0xbd9eb1ea	-0.07748778
126	0xbda3b1db	-0.079929076
127	0x3da4e577	0.080515794

fc.weight f4 [2, 128]
0	0x3c829cad	0.01594385
1	0xbd5e7a53	-0.054315876
2	0xbd666728	-0.05625072
3	0xbcc26522	-0.023729865
4	0x3d99d2ed	0.07510934
5	0x3c51b81d	0.012800244
6	0xbdc5abf3	-0.09651937
7	0x3d6dfc23	0.058101784
8	0x3dc46b54	0.09590784
9	0xbc817984	-0.015805013
10	0xbb106fab	-0.0022039216
11	0x3ce5422a	0.027985651
12	0xbd8ef92b	-0.06981119
13	0x3d8f54fc	0.06998631
14	0x3d6e748f	0.058216628
15	0xbd39450a	-0.045231856
16	0xbd406557	-0.046971645
17	0x3d307431	0.04307956
18	0xbcd0554b	-0.025431296
19	0xbd4d6d60	-0.050153136
20	0x3cdbffd6	0.02685539
21	0x3d3f7291	0.04674012
22	0x3db7d2cb	0.089757524
23	0xbda12d04	-0.07869914
24	0x3d1939c8	0.03740862
25	0xbd256a4f	-0.040384587
26	0x3d268b39	0.040660117
27	0xbd13f89d	-0.036125768
28	0x3d09fbf6	0.033687554
29	0xbdbdd34c	-0.09268817
30	0x3d389247	0.045061376
31	0xbdb70f85	-0.08938507
32	0x3d6308d9	0.05542836
33	0xbce1687a	-0.027515639
34	0xbc9ce755	-0.019153276
35	0x3b4d0d93	0.0031288608
36	0x3d835b92	0.0641395
37	0xbcc0b4d1	-0.02352372
38	0xbd44ad06	-0.04801657
39	0x3cdcb43c	0.026941411
40	0xbdbf95fd	-0.0935478
41	0x3bfd8571	0.0077368547
42	0xbc0ee14a	-0.008720705
43	0xbbcfe0db	-0.0063439435
44	0x3d7d8383	0.061892997
45	0x3d7ccd55	0.061719257
46	0x3c961323	0.018319672
47	0xbd4d610b	-0.050141376
48	0x3ca5e36b	0.020250043
49	0x3d31a56a	0.04337064
50	0xbcfc9b62	-0.030835811
51	0x3d9312bf	0.0718131
52	0xbd495c5d	-0.04916035
53	0x3daef473	0.08542719
54	0xbd82483f	-0.06361436
55	0x3da3c411	0.07996381
56	0xbd8ccbce	-0.0687481
57	0x3c9496de	0.018138345
58	0xbd21dad6	-0.03951534
59	0xbd660332	-0.05615539
60	0x3d886935	0.06660692
61	0x3d65fb62	0.05614794
62	0xbc6e28fc	-0.014536139
63	0x3b687f39	0.0035476221
64	0x3cf28386	0.02960373
65	0x3dbc2aef	0.091878764
66	0x3bac3881	0.005255759
67	0xbcedaeef	-0.029014079
68	0xbc181f30	-0.009284779
69	0xbd3c3101	-0.04594517
70	0x3d3c19a7	0.0459229
71	0x3dc5db6b	0.09660991
72	0xbc2b1d03	-0.010443929
73	0x3d79d636	0.060995303
74	0x3da12b69	0.07869608
75	0xbd3d56a6	-0.046225213
76	0x3d32737b	0.043567162
77	0xbdc2e925	-0.09517125
78	0xbca633b9	-0.020288335
79	0x3d977391	0.073950894
80	0xbbb7d7ba	-0.0056104334
81	0xbc2e7721	-0.01064852
82	0xbd143621	-0.036184434
83	0x3d28f4ae	0.04124897
84	0xbdc24a09	-0.09486777
85	0x3d8b3b41	0.06798411
86	0x3d3e05ae	0.046392135
87	0x3d257e7a	0.04040382
88	0xbd0a857a	-0.0338187
89	0x3c26d614	0.010182876
90	0xbd6777b7	-0.056510653
91	0x3d928f51	0.07156242
92	0x3d9de881	0.07710362
93	0xbd6e048a	-0.058109798
94	0xbda6b5ac	-0.0814012
95	0xbd869448	-0.06571251
96	0x3d10fd40	0.035397768
97	0x3d4c094d	0.049813557
98	0x3db052ca	0.08609541
99	0x3b8a5764	0.0042218436
100	0x3d9e33ea	0.077247456
101	0xbdb64a43	-0.08900883
102	0x3ce762c9	0.028245347
103	0xbd8a2bb2	-0.067466155
104	0x3d7065e7	0.05869093
105	0x3d925005	0.07144169
106	0x3c6c7a54	0.014433462
107	0xbdadcf61	-0.0848682
108	0x3d6ae459	0.057346676
109	0x3d8ee56c	0.069773525
110	0x3da6cd5b	0.08144637
111	0xbcce4962	-0.025181476
112	0x3cfab1c1	0.030602338
113	0x3c4d857c	0.012544032
114	0x3d013817	0.031547632
115	0xbd78ceef	-0.060744222
116	0xbd41ad09	-0.04728416
117	0xbcf68a5c	-0.030095272
118	0xbd68485b	-0.05670963
119	0x3ce52d66	0.02797575
120	0xbd94f596	-0.07273404
121	0x3c79c158	0.015243851
122	0x3d540fb9	0.051772807
123	0x3be993db	0.0071282214
124	0xbcee2249	-0.029069083
125	0xbdc3fe32	-0.09569968
126	0x3cabf031	0.020988556
127	0xbd54289c	-0.05179654
128	0xbdb6d19b	-0.08926698
129	0x3d509044	0.050918832
130	0x3d57bbc8	0.052669317
131	0x3b597d9d	0.0033186444
132	0x3cd951ab	0.0265282
133	0xbd21ac59	-0.039471004
134	0xbc383b60	-0.011244625
135	0xbd0f1238	-0.034929484
136	0xbd8b823f	-0.06811952
137	0x3d2f5389	0.042804275
138	0x3d050831	0.032478515
139	0x3d4396f6	0.04775139
140	0xbdd8bc19	-0.10582752
141	0x3cd3af8c	0.025840543
142	0x3cbc5fd5	0.022994915
143	0xbc8f5bc6	-0.017499816
144	0xbb26d85a	-0.0025458545
145	0x3cfebc47	0.031095637
146	0x3d3a1634	0.04543133
147	0x3d4a1523	0.049336564
148	0xbdbcff07	-0.0922833
149	0xbd973824	-0.07383755
150	0x3d14be5e	0.03631436
151	0x3cd51d86	0.026015054
152	0x3db065e1	0.08613182
153	0x3d851adb	0.06499263
154	0xbd9589ea	-0.07301696
155	0x3d05a4bc	0.032627806
156	0xbca74981	-0.020420792
157	0xbd0af5ec	-0.033925936
158	0xbd985819	-0.07438678
159	0x3d29674c	0.041358277
160	0x3ced5913	0.028973138
161	0xbd94d696	-0.072674915
162	0x3c0337cb	0.008008908
163	0x3d53c9fe	0.051706307
164	0xbd5dcf25	-0.054152627
165	0xbd201230	-0.039079845
166	0xbd3bdec8	-0.045866758
167	0x3d6eec99	0.058331106
168	0x3d9444e0	0.07239699
169	0x3cc5a4db	0.02412646
170	0xbcfc750f	-0.030817537
171	0x3d5e9856	0.054344498
172	0x3d9ecff9	0.077545114
173	0xbc7cd50a	-0.015431652
174	0xbd953cb7	-0.07286971
175	0x3d7f2450	0.06229049
176	0xbd9c0eee	-0.07620035
177	0x3c8bcceb	0.017065486
178	0xbd9c6b70	-0.076376796
179	0xbb9ec131	-0.0048448076
180	0xbd809d47	-0.06279998
181	0x3d5c270b	0.05374817
182	0x3d378e51	0.044813458
183	0xbdb10729	-0.08643944
184	0x3d2d31b9	0.042283747
185	0xbd7a5272	-0.061113782
186	0x3d6a9a44	0.057276025
187	0x3d94192e	0.07231365
188	0x3db36fd1	0.08761562
189	0xbd53ba04	-0.05169107
190	0xbb96d937	-0.0046035307
191	0xbd24c044	-0.04022242
192	0xbda3c96c	-0.079974025
193	0x3d0f0398	0.034915537
194	0x3d5e017e	0.05420064
195	0x3d200753	0.039069485
196	0xbd92e05f	-0.07171702
197	0x3da5d4c8	0.080972254
198	0x3cba1f52	0.022720013
199	0x3d4323bf	0.047641512
200	0xbda1ce45	-0.07900671
201	0x3d708088	0.058716327
202	0xbd99d48d	-0.07511244
203	0x3d036d1d	0.03208648
204	0x3da11373	0.07865038
205	0xbd63dc99	-0.0556303
206	0xbbb51905	-0.005526664
207	0x3d268bba	0.040660597
208	0xb9e1b422	-0.00043049554
209	0xbb946f75	-0.0045298883
210	0x3d49ddd0	0.049283803
211	0xbc7f9cc5	-0.015601342
212	0x3d8a5c3b	0.06755873
213	0x3da33174	0.07968417
214	0xbd4ae775	-0.04953714
215	0xbd9c228a	-0.07623775
216	0xbd04daf7	-0.032435384
217	0x3b8ed931	0.0043593873
218	0x3db3343f	0.087501995
219	0xbd84c241	-0.064823635
220	0xbdb95ba2	-0.09050681
221	0xbc76af9a	-0.015056515
222	0xbd2efc80	-0.04272127
223	0x3da17dce	0.078853235
224	0x3d7df093	0.061997008
225	0x3c59f0de	0.013302056
226	0xbce86c61	-0.028371992
227	0xbd19f581	-0.037587646
228	0xbd04bf47	-0.03240898
229	0xbcc9333c	-0.024560563
230	0xbd8cb00b	-0.06869515
231	0x3d098520	0.033574224
232	0x3d150fe3	0.036392104
233	0xbd55afdf	-0.052169677
234	0x3d8af0a8	0.06784183
235	0x3ce2389c	0.027614884
236	0xbd88a9b6	-0.06672995
237	0xbd94865f	-0.07252192
238	0xbc94ad15	-0.018148938
239	0x3d04ecca	0.032452382
240	0xbd274288	-0.040834934
241	0x3cb40ff7	0.021980269
242	0x3d1e5a3c	0.038660273
243	0xbd896811	-0.06709302
244	0xbd931b67	-0.07182961
245	0xbd735dfb	-0.0594158
246	0xbce99065	-0.028511235
247	0xbd270f31	-0.040785972
248	0xbd0700fd	-0.032959927
249	0xbc7f78cb	-0.015592764
250	0x3db1f087	0.08688455
251	0xbd57106f	-0.052505907
252	0xbcb53b4b	-0.022123
253	0xbccd817e	-0.02508616
254	0xbd80a5a9	-0.06281597
255	0xbd686e39	-0.05674574

fc.bias f4 [2]
0	0x3cb5b842	0.022182588
1	0xbda4eeee	-0.08053385
