model.pth (torch, 69399 bytes, 5 tensors)

rnn.weight_ih_l0 f4 [128, 1]
00000000: 9f43 823c 8965 0f3d bc20 0f3c 25f6 4c3c
00000010: d1de 6ebd 1b71 f2bb 7140 d23d 9b26 663c
00000020: 1452 5cbd 76a3 c63d 78dc 2a3d e5e1 d83d
00000030: 9776 713d 067e c7bd 6755 883d ac0d cd3d
00000040: 814c 483c 46b5 d6bd 0498 d43d 7464 8e3d
00000050: a1e8 773d 0b15 02bd 78dd c4bd ba21 b43d
00000060: a53e 8abd 03cc 3dbb 915d 0d3d 94e6 ac3d
00000070: 9298 ac3d 6902 eeba 6560 b4bd f6fe ddbd
00000080: 0cc2 59bd 4c09 2dbd 2568 f03d e397 02bd
00000090: c256 733d 4094 323d dde3 8f3d a84d 973d
000000a0: 665f 173d 252a 803d 806e 89bd 0ec5 83bd
000000b0: 0e63 95bd 214d d9bc 9241 2bbd 322b 85bd
000000c0: 1fa0 7a3d 56cf b83c e5a0 c0bd d514 f23d
000000d0: 671b c8bd 1ed9 b53d 2350 40bd 5561 fe3c
000000e0: e8c0 c33d 56eb 453d 5458 3a3b 5f18 093d
000000f0: 6de0 42bd c29b cd3d 0832 ae3c 4862 643d
00000100: b18d ac3c 2263 afbc fd90 e8bd 8eee 943d
00000110: c875 87bd effd 97bd 8421 de3d fc6f fd3c
00000120: 505a 5e3d f879 94bd 9d43 653d 8d48 723d
00000130: e66f 31bd a780 6dbd f7ee f53b 2bfc 743d
00000140: 0086 883d 9806 99bd fd6b 18bd d420 bfbd
00000150: aaad b43d 2663 303d 665b e73a f935 d33a
00000160: c66b 9c3d 03db 19bd 3a7f a3bd b57d 70bd
00000170: e5ef 88bd 9a6a 93bd d843 f33a 50ac 9a3d
00000180: 3e0f 693d 6021 73bc 3987 d03d dcd1 97bd
00000190: 2722 d33c 167c 9abd 48f2 4d3d ccf4 113d
000001a0: 9138 dabd d639 d3bd fcb9 b7bc 34d1 d13d
000001b0: 7f81 de3d 0540 993d ccba 9cbd 53aa 64bd
000001c0: f06f 8ebd 3738 73bd af69 153c eb32 413d
000001d0: 52cc babc 704c 42bd 1597 e3bd 1c09 c8bd
000001e0: 442f 0bbd ee31 c23d 8c39 c23d e31e c3bd
000001f0: c188 f2bb 6752 3c3d f33b e53c 150e 573d
0.015901385 0.03500894 0.008735832 0.012509857 -0.058317963 -0.007398737 0.102661975 0.01404729
-0.053789213 0.096991464 0.04171416 0.10589961 0.058950987 -0.09740834 0.06656914 0.10012373
0.012225271 -0.10483794 0.10380557 0.06952754 0.060524587 -0.03175835 -0.09612554 0.08795495
-0.0675023 -0.0028960712 0.03451306 0.08442417 0.08427538 -0.0018158677 -0.08807448 -0.108396456
-0.053163573 -0.042245194 0.11738614 -0.03188313 0.05940891 0.043598413 0.07025883 0.07387859
0.036956213 0.062580384 -0.06710529 -0.064340696 -0.07294284 -0.026526036 -0.04181058 -0.065023795
0.06118786 0.022559803 -0.09405688 0.1182038 -0.097708516 0.088793024 -0.046951424 0.03105227
0.09558278 0.048320137 0.0028433995 0.033470508 -0.04757731 0.10039474 0.021264091 0.05575779
0.021063657 -0.021409575 -0.11355779 0.07272063 -0.06614262 -0.07421481 0.10846236 0.030937187
0.054285347 -0.07249826 0.055972684 0.05915122 -0.043319605 -0.05798402 0.0075052935 0.0598108
0.066661835 -0.07471961 -0.03721236 -0.09332433 0.08822186 0.043063305 0.001765114 0.0016114108
0.07637744 -0.03756238 -0.07983251 -0.058713634 -0.06686381 -0.07198067 0.0018559648 0.07552397
0.0568993 -0.0148395 0.10182042 -0.074130744 0.025773121 -0.07543199 0.050279886 0.035633847
-0.106553204 -0.10313766 -0.022427551 0.102449805 0.10864543 0.07482914 -0.07652816 -0.055826496
-0.06954944 -0.059379783 0.009119435 0.0471677 -0.022802506 -0.047436178 -0.11112801 -0.097673625
-0.033980623 0.094821796 0.094836324 -0.095273755 -0.0074015562 0.045977022 0.027982688 0.052503664

rnn.weight_hh_l0 f4 [128, 128]
00000000: 58f6 763c be95 11be 04b1 94bc 147d 903c
00000010: 6743 853c 70c2 cc3d b68a c3bd 67f3 83bd
00000020: a3ba 043e 90c5 c2bd 0356 b53d 4625 d13c
00000030: 1a2c 5b3d 92c5 6abd b234 1ebd 4e1a 2dbd
00000040: 9273 35bd 5eb8 4f3c aded 83bd 12ef 303d
00000050: f5de 7c3d e640 12bc ae03 a03b 31d3 a83c
00000060: 9648 dd3c af0f 9bbc 5510 2c3d 3121 afbd
00000070: a435 96bd e0df d6bd 6a56 a83d 553a 683b
00000080: f611 74bc 79d1 1b3d 7d2a 2a3c b960 ff3b
00000090: 4d7a 5d3d 0ac5 943d 3fe6 eebd 9f3e 433d
000000a0: c11f 44bc 2c24 83bd 158b 443d 42a4 75bd
000000b0: acbc c0bb 3b01 72bb 0578 0cbd 1b77 253d
000000c0: 2302 12bb 8329 86bc 5fa2 663d 9e1b 96bb
000000d0: 29b1 f0bc 5195 36bd fb20 a2bc 5023 7d3d
000000e0: 435b 2fbd 2b18 4dbc 996b a63c 62de 8f3b
000000f0: 1448 7a3d 0072 a9bd a89b 3abd 2a01 453c
00000100: 5658 5bbb e24a f03d cc02 2dbd 900c a53c
00000110: 0182 953d dcf8 383b 7bb8 a1bd d51f b13d
00000120: 8207 05bd 3c15 f63c cd62 9cbd 2098 8dbd
00000130: f420 ac3d 1038 973d 60d5 623c 5b67 65bd
00000140: b4a2 aebd c596 c63d c0a4 c9bd b791 9b3d
00000150: 250b b5bd 7c0d a3bb 1351 fb3c 72f9 13bd
00000160: 79ca bfbd cf8b 143d d6fc 393d 82f5 bc3d
00000170: 3c93 c23d 76da 83bd 7bf0 56bd 572d 97bc
00000180: 1cff bf3c 6025 ce3c daf6 693b 3125 f3bc
00000190: 6727 8fbd dc49 a73d 30eb 653d 7773 713d
000001a0: e35b 633d ad6d 153d 6db6 c2bd ae73 6fbd
000001b0: 2832 c4bd 0fb8 6d3d 2f34 f53c 91f2 2abb
000001c0: 4e5a 16bc d2b3 7dbd ae07 823d 166f 70bd
000001d0: 65ec ae3c 8342 e63c 7435 b1bc 5723 30bd
000001e0: 0016 8cbd b9f3 173d 63c8 8dbd 057f 533d
000001f0: 4969 5cbc 53a6 453d b14e c63c f89a 023d
00000200: 3732 b0bc 9cdb 55bd 8481 533d 201a 443b
00000210: 8325 a8bd 0db8 413b 9726 15bd 694e 9e3d
00000220: e2a8 7abd dde6 a6bd 4ccb 703d adb5 0a3d
00000230: a26d 96bd aa4c c03a d177 9a3d 3c60 253d
00000240: e4fb 8fbd 6e81 573d f0c3 e4bc fe8b 163c
00000250: 29a4 8c3d 5d52 9e3d ef31 2cbd 5132 963c
00000260: c66d 6f3c fb45 f8bc e40f 5d3c a26a 8fbd
00000270: b17c 67bd 3234 463b ba2d 4c3c e5b8 cc3b
00000280: 2457 4fbd d08e 6cbd ed2a acbd 2972 1dbb
00000290: 4172 2e3c 8da3 f3bb c0ee edbb 9d66 3dbc
000002a0: eed0 c6bd 3226 843d e931 0bbc 43da 7abc
000002b0: 9437 96bd 2a2f 263d 073e 203d bd93 8c3d
000002c0: 1093 ed3d 3cc7 1bbd d680 2a3d 6a1d 93bc
000002d0: 6867 1dbd 8320 84bc 1370 00bd bd61 8bbd
000002e0: f195 abbd ec8d 3f3d c922 4fbd d6be 043d
000002f0: b33f f9bc 3160 09bd cc2a 2c3d 3bff 953d
00000300: 291d babc 2f22 0f3d 4adf 2d3d 89da 1d3c
00000310: cc10 743d c272 bdbc 6031 b4bb cb3b a0bd
00000320: 2193 153d d73e fcbb f27c 4fbd cdc6 a6bc
00000330: 352a b3bc 6cba 1ebd 753d a5bc 1236 89bc
00000340: 72ec 1b3d 51ae c33d 7ae7 24bd 4e28 bd3d
00000350: 5671 273d ccfd 313c 379e 3e3c e4fa 043d
00000360: 5459 ef3c ef72 dfbc 5e20 823d 34ee a93d
00000370: 4c72 a33d c1d9 373d 9f61 803c 01b1 a1bc
00000380: aa70 a33c e5ba eb3c c358 0bbd 7f52 af3b
00000390: 47e1 38bd 2c50 06bb 7aae e83c ae95 933d
000003a0: 25fc e43c 90bd 893c ba79 9d3d a2d1 313c
000003b0: a9d4 8dbc c2cc 293d aa36 a63d 9d30 383c
000003c0: 1a2f 8dbd 0820 803b 79ed 39bc 8627 21bd
000003d0: 7e42 87bd f12b a33d 349b 8bbd 676f b7bb
000003e0: a0ab 8ebd 10db 163d e690 a53d 0265 583c
000003f0: 807c 82bd 4c19 823d 60a4 4bbd 4e3c aebd
0.015073381 -0.14217278 -0.018150814 0.017637767 0.016267492 0.099980235 -0.095479414 -0.0644291
0.12961821 -0.09510338 0.08854296 0.025530469 0.053508855 -0.057317324 -0.038624473 -0.042261414
-0.04429967 0.012678234 -0.064418174 0.043196745 0.061736066 -0.008926606 0.004883251 0.020608516
0.02701215 -0.018928377 0.042007763 -0.08551253 -0.0733445 -0.104919195 0.08219607 0.003543516
-0.01489686 0.038041566 0.010386107 0.0077935127 0.054071713 0.07264145 -0.1166501 0.047667142
-0.011970461 -0.064033836 0.0479842 -0.0599711 -0.0058818664 -0.0036927003 -0.034294147 0.04039679
-0.0022279106 -0.016377216 0.056307193 -0.004580929 -0.029381352 -0.044575993 -0.019791117 0.061801255
-0.042811643 -0.012517969 0.020314978 0.004390524 0.061103895 -0.08273697 -0.0455586 0.012024203
-0.00334694 0.11733033 -0.042238995 0.020147592 0.07300187 0.0028224504 -0.07896515 0.086486496
-0.032477863 0.030039422 -0.07636032 -0.06913781 0.08404723 0.0738374 0.013844818 -0.05600677
-0.08527127 0.09696726 -0.09845877 0.07596152 -0.08840016 -0.0049759727 0.030678308 -0.03612656
-0.093647905 0.036266144 0.04540714 0.092265144 0.09500739 -0.064381525 -0.052475434 -0.018454237
0.023437075 0.025164306 0.0035700114 -0.02968082 -0.06989937 0.081683844 0.056132495 0.058948006
0.055507552 0.036481548 -0.09507451 -0.05845993 -0.09579879 0.05803686 0.02993211 -0.0026084522
-0.009176804 -0.06193907 0.06349121 -0.05869969 0.021352956 0.028107887 -0.021631934 -0.043002453
-0.06840134 0.037097666 -0.06922986 0.051634807 -0.013452836 0.048254322 0.024207445 0.03188607
-0.02150832 -0.05221139 0.051637188 0.0029922798 -0.0821028 0.0029559166 -0.036413755 0.07729799
-0.061196215 -0.081495024 0.05878763 0.033864666 -0.073451295 0.0014671285 0.075423844 0.04037498
-0.07030466 0.05261367 -0.027925462 0.00918865 0.068672486 0.07730553 -0.042039808 0.01833454
0.014613574 -0.030306807 0.013492558 -0.070027605 -0.0565154 0.0030243513 0.012462074 0.006247627
-0.050620213 -0.057753384 -0.08406625 -0.0024024344 0.010647357 -0.0074352683 -0.0072611272 -0.011560109
-0.09707819 0.06452598 -0.008495786 -0.015310827 -0.073348194 0.040572323 0.039121654 0.06864116
0.116003156 -0.0380318 0.041626774 -0.017958362 -0.038428694 -0.016128784 -0.031356882 -0.068057515
-0.083782084 0.046766207 -0.050570283 0.032408558 -0.030425882 -0.033539 0.042033 0.07324072
-0.022718983 0.03494471 0.042449273 0.009634622 0.05958633 -0.02312601 -0.00549905 -0.078239046
0.036517266 -0.007697921 -0.050656267 -0.020358467 -0.021870712 -0.038752005 -0.020170907 -0.016749416
0.03806729 0.095547326 -0.040259816 0.09236203 0.04087957 0.010863733 0.011634401 0.03246583
0.0292174 -0.027276484 0.0635383 0.08297387 0.07980785 0.0448854 0.01567155 -0.019737722
0.019951183 0.028775642 -0.034020197 0.0053504105 -0.045136716 -0.0020494564 0.02840351 0.072062835
0.027952263 0.016814023 0.07689233 0.010853203 -0.017313318 0.041455038 0.08115895 0.011242059
-0.068937495 0.0039100684 -0.011348122 -0.039344333 -0.06604479 0.079673655 -0.06816712 -0.005597997
-0.069663286 0.036830008 0.08084278 0.013207676 -0.06371403 0.06352481 -0.049717307 -0.08507596

rnn.bias_ih_l0 f4 [128]
00000000: 121e b1bc 326f 7e3d 0d61 e23c 0d6e 493d
00000010: 3119 503d 7e30 c53c 5196 9ebd 1972 dbbc
00000020: c62c 903c b09c 833c 3fb5 8f3c 5eb4 9e3d
00000030: 4cfd 7a3b 6319 993d 54e3 10bd 88a5 ac3b
00000040: 0b70 43bb a034 95bd b674 18bc 5268 a43c
00000050: a59c dd3c f71e 88ba 9427 663d 290f dabb
00000060: 45cf 1abd b8e4 7c3c 195b 2e3d 57f3 783d
00000070: ad60 5bbd ba37 91bd 827d a53b 0bbd 9dbc
00000080: 3e31 13bd b16f 27bd 3b92 41bd 8581 b7bc
00000090: b771 d2bc 2b4f 7c3c 1f79 0cbd c2ab b93c
000000a0: 400c 76bc b7f4 0ebd b209 8d3a 163b abbc
000000b0: 2a9e 5dbd 9fb3 8d3d 2cfd 053d d56b bfbc
000000c0: b242 673d 5fd8 893d ccff 3e3d ec0c 5dba
000000d0: ffd2 32bc b53d ab3d 48c8 b9bc add6 b4bc
000000e0: 8e57 063c 4a5c adbc dbdb 313d 4ec4 e5bc
000000f0: 8668 f03c f768 073c c0eb 29bd 9e4b 273d
00000100: 2efb a33c a560 943c b7e1 a6bc fbe5 b53c
00000110: f3e2 28bd d7d2 d93c 88d7 9a3d 1ca1 46bd
00000120: 122f 85bd e018 8cbd 936d 823d a551 8d3d
00000130: b389 7bbd 660b fabc 4865 613d 911a 953c
00000140: 7b71 59bd 3201 ebbc 0983 49bd f8d0 2e3d
00000150: be0f 183d 0508 f23c b36a b33d 278d 22bd
00000160: 23fa 14bd c9de 0ebd e004 aa3c c663 1b3d
00000170: 4912 86bd fe16 08bd a3f4 a43d 2c13 a3bc
00000180: 5d64 07bd 9ba8 8dbd afa9 97bd 75ba ee3c
00000190: 132b 0a3d ad8c 70ba c5f8 8bba d297 743d
000001a0: 6f92 8fbd 5dfc 783d 13af 8abd 54e7 133b
000001b0: 28ac a53d 7d47 8e3d 3852 59bd 1403 89bd
000001c0: 6b5c acbc 19b9 113d 840c 413c 9aed ccba
000001d0: 9475 40bd 45a4 7ebc 96b1 9c3d 2dc8 c2bc
000001e0: 5ffd d7bc 431f 3abc 27fa b6bc 6cf3 893c
000001f0: fbbf b23c 46e4 a73b c80f 74bd ff3e 503b
-0.021620784 0.062117763 0.027634168 0.04917722 0.050805274 0.024070974 -0.07743514 -0.026787804
0.017599475 0.016065925 0.01754248 0.07749246 0.003829795 0.07475545 -0.035373047 0.0052687563
-0.0029821421 -0.07285428 -0.00930517 0.020069275 0.027052233 -0.0010385205 0.05619009 -0.0066546393
-0.037795324 0.01543539 0.042567346 0.060778942 -0.053558994 -0.07090707 0.005050362 -0.019255182
-0.035935633 -0.040878 -0.047258597 -0.022400627 -0.02568899 0.0153997345 -0.034295198 0.022664908
-0.015017569 -0.034901347 0.0010760336 -0.020902198 -0.054105915 0.06919026 0.032712147 -0.023366848
0.05646009 0.06730723 0.046630666 -0.00084324065 -0.010914563 0.08361379 -0.02267851 -0.022075022
0.008199586 -0.02116217 0.04342256 -0.028047707 0.029346716 0.008264772 -0.041484594 0.0408436
0.020017233 0.01811249 -0.020371301 0.02220439 -0.04123206 0.026589794 0.075606406 -0.04849349
-0.065031186 -0.06840682 0.06368556 0.06900338 -0.061410617 -0.030523013 0.05502823 0.018201144
-0.05308674 -0.028687093 -0.04919723 0.042679757 0.037124388 0.02954484 0.08760586 -0.039685395
-0.03637136 -0.034880433 0.020754278 0.03793695 -0.06546456 -0.033225052 0.08054473 -0.019906603
-0.0330547 -0.069169246 -0.074054115 0.029141644 0.033732485 -0.0009176236 -0.0010678997 0.0597151
-0.07010352 0.060787547 -0.06771674 0.0022568302 0.08089477 0.06947229 -0.053056926 -0.0669004
-0.021040162 0.035576914 0.011782769 -0.0015634776 -0.04698713 -0.015542095 0.07651059 -0.023777092
-0.026365934 -0.011359992 -0.022336079 0.016839705 0.021820059 0.005123648 -0.059585363 0.003177583

rnn.bias_hh_l0 f4 [128]
00000000: 333c 4cbd 15a3 50bd 5da3 e23c 6375 883d
00000010: 3168 aebd c291 6dbd 23d1 ad3d 444a 40bd
00000020: 9060 f73c 5b22 4cbb 8676 013d f31f 873c
00000030: f716 e23c 3d15 4fbd 42bb 603d 8014 073d
00000040: 6a28 6cbd 06c4 473d 64fd 6abd c468 3a3d
00000050: 7358 b33c 01c7 763d 6cb2 313d 833d ab3d
00000060: 9d89 29bd ade6 b33c e5e5 c93c 0dc5 20bd
00000070: b7c4 6fbd 288a 693d 5183 f7bc 1c41 29bc
00000080: 68f5 cbbc d6f4 0d3d 22d1 653d e597 d9bc
00000090: 57b6 a23d 1888 bc3c 1319 d7bc 9592 a43d
000000a0: 86b4 27bd d1cd 80bc 1b28 a6bd 1b81 7d3b
000000b0: e58d 903d d4be 1e3d 18d2 063d aa88 023c
000000c0: 84b2 933c dba0 0cbd 5e12 7c3d 2455 d03c
000000d0: 3d8d 0b3c 7130 4fbd 9b0b 29bd b24c 893d
000000e0: a7e4 813c 9116 5d3d fef6 05bc 1e99 0ebd
000000f0: ec0b d83b 31bc 613d 4392 8fbd d3ac 03bd
00000100: 0031 35bc 82bd 243d 72fd 033c 89fe 9b3d
00000110: 3721 433c 7103 e2bc 0858 36bd 7e9f 5b3d
00000120: 73cd 263d 1e3b 613d 2707 143b 8229 b3bc
00000130: d245 23bd 798e 793d 4d5b 5abd dfd0 9e3d
00000140: 7151 49bd 138e d5bc 0f5e 37bd 3eaa 91bd
00000150: 1952 c4bb cdbf a83d 039c 04bc 4161 923c
00000160: 7577 7f3c 57a4 543d 9b10 25bd 3a06 4f3d
00000170: 3a7f 883d 8894 54bc 5455 9fbc a10c b83d
00000180: 866a 88bd a02b 303c 4d27 d33c e75a 09bc
00000190: b72b b83c fe36 543d c756 f13c c56a 23bd
000001a0: 937c c83b e7f5 963d fb4f 2e3d 8bf6 22bd
000001b0: 381c 06bd bf7f 4ebd 079a 913d 26b0 a13c
000001c0: e825 58bd 6215 97bc 343a 903d c3ec 293d
000001d0: 1730 bb3c 8f2c c4bc addb 9bbc 4d31 d7bc
000001e0: bf41 e83c b1e5 6bbb 8b41 293d 1310 263d
000001f0: 89fe 16bd 683d a3bc e712 b93b fbcd 82bd
-0.049862098 -0.050936777 0.027665788 0.06663015 -0.08515967 -0.058000334 0.08487155 -0.046945825
0.030197412 -0.0031148407 0.031607173 0.016494727 0.027598841 -0.050557364 0.054866083 0.032978535
-0.05765573 0.048770927 -0.05737056 0.04551007 0.021892762 0.06024838 0.043383047 0.08361342
-0.041391004 0.02196058 0.024645755 -0.039250422 -0.05853721 0.05701652 -0.030213984 -0.010330465
-0.024897292 0.034657322 0.056107648 -0.026561687 0.07944935 0.023014113 -0.026257074 0.08035771
-0.040943645 -0.01572314 -0.08113118 0.003868169 0.07058314 0.038756207 0.032915205 0.007967154
0.018029459 -0.03433309 0.061540954 0.025431223 0.008517561 -0.050583307 -0.041270833 0.067040816
0.0158561 0.0539766 -0.008176563 -0.034813993 0.006593218 0.055111114 -0.07010319 -0.03214724
-0.011059046 0.04021979 0.008056032 0.07616908 0.0119097745 -0.027589532 -0.044517547 0.0536189
0.040723275 0.05498802 0.002258727 -0.021870378 -0.039861508 0.06092689 -0.053309727 0.07754683
-0.049149934 -0.026068723 -0.044767436 -0.07112549 -0.005991232 0.08239708 -0.008093837 0.01786864
0.015592446 0.05191454 -0.04029904 0.050543047 0.066648915 -0.012974866 -0.019449867 0.08986784
-0.06660943 0.0107525885 0.025775576 -0.008383489 0.022481782 0.051810257 0.029460324 -0.039896745
0.006118366 0.07371121 0.042556744 -0.039785903 -0.032741755 -0.050414797 0.071094565 0.019737314
-0.052770525 -0.018442813 0.07042351 0.04148556 0.02285008 -0.023947028 -0.019025648 -0.026268626
0.028351663 -0.003599506 0.041322272 0.040542673 -0.036863837 -0.019926742 0.0056480053 -0.06386944

fc.weight f4 [1, 128]
00000000: 97d4 b53b 56f9 7b3d 0e5c 5839 7e6b 8c3d
00000010: a954 493d 14db abbc fa9f b9bd 6cad abbc
00000020: 58d7 52bd e5e7 853d 1642 383b 6521 89bd
00000030: 9781 25bc 2bac a53d 936c a5bd e57a 9bbd
00000040: d776 263d 226e 4b3c 9c00 82bd 4ebd c13b
00000050: 081d cbbc d512 853d 8270 913d 5218 0fbc
00000060: 0028 49bd 3a65 723d 81f2 4aba 6c55 e6bc
00000070: c51a 8bbd de8b 963d ff87 f13c 7700 203d
00000080: 8c24 0dbd 4cdc 1dbd 7c18 9bbd 0d8c 9cbd
00000090: de07 9fbd f62e a43b d27c 5a3d fd3d 89bb
000000a0: cc77 533d 8aff cfbc 805b 4e3d 9aa0 9c3d
000000b0: 50c2 a33b f056 fabc 8460 07bd 273c 0b3d
000000c0: b398 cb3b b4c6 12bd 52e3 b23d 98c2 0bbd
000000d0: 70a4 0fbc e5cc 01bd ddbb 53bd 5f8d 133d
000000e0: 42d1 24bd a633 883d 0b27 5abd 93ee 4f3d
000000f0: 25c9 133c 0a39 d5bb 2c42 303d a26d 2abd
00000100: 6463 14bd de3d 86bd 95e1 e3bb acd0 c7bd
00000110: 1e9f f83c 2292 953d 0473 91bd 19b4 1e3b
00000120: d63d 92bd 4dcc c33d 439e c739 df9d 253d
00000130: cce6 24bd 3cf5 4f3c 20a8 333d d3e4 0ebd
00000140: 13e1 ce3c cbf3 b73d 9dd0 40bd 7aef 933c
00000150: d5b1 14bd 2c1c 63bc 2c89 91bc 1e38 493d
00000160: 9dde 843d 7221 123d b71d babc a275 0c3d
00000170: 2c6f 1ebd 1d51 493c b341 2abd 72f6 dcbc
00000180: 1635 a4bd a230 92bd 8648 0dbc 14c3 85bb
00000190: 1682 613c 3e37 173d 9b85 b53c 9024 103c
000001a0: 7218 ad3d 2481 74bc e030 14bc aa52 e8bc
000001b0: bdd7 57bd 26ed 17bd 21d7 4bbd 0d45 303d
000001c0: 08cc d4bc aeee b4bb 96bd ffbc 3213 133d
000001d0: 8f89 79bb b686 313c f15f 953d 0f65 5d3c
000001e0: d999 0d3d 3b71 83bd 5fea 113c 7977 b43d
000001f0: 7718 a6bc 0d8c 8abd c7db cabc 78c3 a13d
0.0055490243 0.061517082 0.00020633658 0.0685644 0.049153004 -0.020978488 -0.09063716 -0.020956717
-0.0514749 0.06538371 0.0028115562 -0.066958226 -0.010101697 0.08089479 -0.080773495 -0.075918
0.04064068 0.012416394 -0.063477725 0.0059124595 -0.024794117 0.064977325 0.07101537 -0.008733826
-0.049110413 0.05917857 -0.00077418244 -0.028116904 -0.06792215 0.07350896 0.029483793 0.039062943
-0.034458682 -0.03854017 -0.075730294 -0.076439 -0.077651724 0.005010481 0.053341694 -0.004188298
0.05162792 -0.025390405 0.05038023 0.0764782 0.004997529 -0.030559033 -0.03305103 0.033992913
0.0062132715 -0.03583403 0.08734764 -0.034121126 -0.008767232 -0.031689543 -0.051692832 0.036023494
-0.040238626 0.06650476 -0.05325989 0.05076463 0.009020125 -0.0065070437 0.043031856 -0.04160846
-0.0362276 -0.06554769 -0.0069543817 -0.09756598 0.03034931 0.07303263 -0.071020156 0.0024216233
-0.071407005 0.09560452 0.00038074152 0.04043376 -0.040259168 0.012692746 0.04386151 -0.034886193
0.025253808 0.08982047 -0.04707395 0.018058527 -0.036302406 -0.013861697 -0.017765604 0.049125783
0.064877726 0.035676427 -0.022719247 0.03429187 -0.03868024 0.012287405 -0.041566562 -0.026972983
-0.08017938 -0.07138182 -0.008623248 -0.004082093 0.013763925 0.036917917 0.022158435 0.00879778
0.08451928 -0.014923368 -0.009044856 -0.02835973 -0.05269598 -0.037091397 -0.04976571 0.043034602
-0.025976196 -0.005521617 -0.031218331 0.035906978 -0.0038076376 0.01083534 0.0729369 0.013512864
0.03457055 -0.064180814 0.008905976 0.0881185 -0.020275338 -0.06764994 -0.024763001 0.07898611
