rnn-tests-22-11-13/model4.pth (torch, 2135 bytes, 6 tensors)

rnn.weight_ih_l0 f4 [2, 3]
000000 15 57 c3 3b ae a2 0d 3d ef 09 93 c0 4e 99 24 bc
       0.0059613087 0.03457897 -4.5949626 -0.010046316
000010 e5 1d f4 3c 80 1c aa c0
       0.029799411 -5.315979

rnn.weight_hh_l0 f4 [2, 2]
000000 52 d5 69 3f d0 01 89 3d 48 29 b3 bd d9 58 89 3f
       0.91341126 0.06689799 -0.08748108 1.0730239

rnn.bias_ih_l0 f4 [2]
000000 b6 a5 04 be 01 6a a0 3e
       -0.12953839 0.31330875

rnn.bias_hh_l0 f4 [2]
000000 9b 73 42 3f ab de 11 3d
       0.7595765 0.035612743

fc1.weight f4 [2, 2]
000000 16 b0 57 c0 cb 17 77 40 72 57 3b 40 55 8e 73 c0
       -3.3701224 3.8608272 2.9272122 -3.8055623

fc1.bias f4 [2]
000000 0f a4 7f 3f 1c a4 ad bf
       0.9985971 -1.3565707
