rnn-tests-22-11-13/model7.pth (torch, 2135 bytes, 6 tensors)

rnn.weight_ih_l0 f4 [2, 3]
00000000: f8cc 28bc 1953 163d 80c2 4fc0 7d24 03bd
00000010: caa5 f43c dc5a 76c0
-0.010302775 0.03670034 -3.2462463 -0.03201722 0.02986421 -3.8492956

rnn.weight_hh_l0 f4 [2, 2]
00000000: e0a7 843f 155c 8cbd 3a61 193b f384 803f
1.0363731 -0.06853501 0.0023403899 1.0040573

rnn.bias_ih_l0 f4 [2]
00000000: 580b 84be e27e 7a3e
-0.25789905 0.24462464

rnn.bias_hh_l0 f4 [2]
00000000: ee91 213f 0b68 07bd
0.63113296 -0.033058207

fc1.weight f4 [2, 2]
00000000: 6759 2cc0 e81d 2b40 bb00 1040 8c94 27c0
-2.6929567 2.6737003 2.2500446 -2.6184416

fc1.bias f4 [2]
00000000: 2c2c 513f f467 96bf
0.81708026 -1.1750474
