rnn-tests-22-11-13/model1.pth (torch, 2135 bytes, 6 tensors)

rnn.weight_ih_l0 f4 [2, 3]
000000 74 3d c7 3c 44 3a a6 bc e4 ea 91 c0 f5 11 39 3b
       0.024321295 -0.020291455 -4.559923 0.0028239463
000010 c8 dd ef bc b8 49 83 c0
       -0.029280558 -4.102749

rnn.weight_hh_l0 f4 [2, 2]
000000 73 aa 78 3f e5 cf 8a 3d 96 e8 15 bd a0 c2 86 3f
       0.97135085 0.06777934 -0.036598764 1.0528145

rnn.bias_ih_l0 f4 [2]
000000 a6 4a 96 bc a1 d5 b7 3e
       -0.018346142 0.35905173

rnn.bias_hh_l0 f4 [2]
000000 99 f9 02 3e 41 8d b3 3c
       0.12790526 0.021917941

fc1.weight f4 [2, 2]
000000 5b 43 43 c0 8e 6a 3f 40 ef d9 47 40 5b 12 07 c0
       -3.050986 2.9908786 3.1226766 -2.1104953

fc1.bias f4 [2]
000000 08 ba 62 bf 44 0f a7 3f
       -0.8856511 1.3051534
