rnn-tests-22-11-13/model5.pth (torch, 2135 bytes, 6 tensors)

rnn.weight_ih_l0 f4 [2, 3]
-0.0019480791 0.0469308 -3.2386332 -0.028943177 0.03573368 -3.7306843
00000000: b056 ffba 833a 403d c445 4fc0 3e1a edbc
00000010: 7b5d 123d 88c3 6ec0

rnn.weight_hh_l0 f4 [2, 2]
0.9875524 -0.016106308 0.039007343 0.9658367
00000000: 3cd0 7c3f 60f1 83bc 2ac6 1f3d 1341 773f

rnn.bias_ih_l0 f4 [2]
-0.23615924 0.239152
00000000: bad3 71be 43e4 743e

rnn.bias_hh_l0 f4 [2]
0.65295655 -0.038546745
00000000: 2928 273f 31e3 1dbd

fc1.weight f4 [2, 2]
-2.6047475 2.55665 2.1618502 -2.5013998
00000000: 2fb4 26c0 27a0 2340 c15b 0a40 ef16 20c0

fc1.bias f4 [2]
1.0525583 -1.4105047
00000000: 3bba 863f 6b8b b4bf
