rnn-tests-22-11-13/model8.pth (torch, 2135 bytes, 6 tensors)

rnn.weight_ih_l0 f4 [2, 3]
0	0xbacc7965	-0.0015600143
1	0x3cf03ff4	0.02932737
2	0xc0a767b6	-5.23141
3	0xbca76d25	-0.020437786
4	0x3cf74f44	0.030189164
5	0xc0b14509	-5.539677

rnn.weight_hh_l0 f4 [2, 2]
0	0x3f7c2559	0.9849449
1	0xbd06534d	-0.032794286
2	0x3baa0fd0	0.0051898733
3	0x3f6eedd3	0.9333164

rnn.bias_ih_l0 f4 [2]
0	0xbddf70f5	-0.10910217
1	0x3ede635a	0.43435174

rnn.bias_hh_l0 f4 [2]
0	0x3f47ab97	0.779962
1	0x3e206f2e	0.15667412

fc1.weight f4 [2, 2]
0	0xc078c7aa	-3.8871865
1	0x4074f10a	3.8272119
2	0x405c6f21	3.4442828
3	0xc0716791	-3.7719462

fc1.bias f4 [2]
0	0x3f89deac	1.0771079
1	0xbfb7b0a3	-1.435078
