rnn-tests-22-11-14-4node/model1.pth (torch, 2135 bytes, 6 tensors)

rnn.weight_ih_l0 f4 [4, 3]
0.06982922 -0.036186766 2.2417128 -0.039862785 0.02696892 -2.69233 0.1043238 0.004674135
2.2154036 0.040502768 0.07018481 -0.54133415
00000000: 9f02 8f3d 9338 14bd 3978 0f40 2947 23bd
00000010: eded dc3c 224f 2cc0 b7a7 d53d 7c29 993b
00000020: 2cc9 0d40 3be6 253d 0ebd 8f3d e094 0abf

rnn.weight_hh_l0 f4 [4, 4]
1.0448046 -0.5500801 -0.16693819 0.13386215 0.13421947 -0.7242489 -0.8145945 0.59330404
0.5151353 0.49303955 0.22652806 0.12455026 0.36627808 0.61553824 -0.4989919 1.0454055
00000000: 28bc 853f 0dd2 0cbf d8f1 2abe 2913 093e
00000010: d470 093e 6068 39bf 4489 50bf c6e2 173f
00000020: e8df 033f ae6f fc3e f9f6 673e 3514 ff3d
00000030: cd88 bb3e ea93 1d3f de7b ffbe d9cf 853f

rnn.bias_ih_l0 f4 [4]
0.38211414 1.2708111 0.7423973 0.44442436
00000000: 77a4 c33e f0a9 a23f c00d 3e3f 978b e33e

rnn.bias_hh_l0 f4 [4]
0.8549382 1.1722158 1.4037181 0.52359754
00000000: 3bdd 5a3f 2b0b 963f 09ad b33f 7d0a 063f

fc1.weight f4 [2, 4]
-1.3059319 1.839932 1.7208431 -1.2480524 1.7687895 -2.4327974 -2.222963 1.9623017
00000000: c728 a7bf e482 eb3f 9644 dc3f 2ec0 9fbf
00000010: b267 e23f f4b2 1bc0 0745 0ec0 b42c fb3f

fc1.bias f4 [2]
-2.1108851 2.3664324
00000000: be18 07c0 a173 1740
