rnn-tests-22-11-14-4node/model8.pth (torch, 2135 bytes, 6 tensors)

rnn.weight_ih_l0 f4 [4, 3]
0	0x3b8ba02c	0.0042610373
1	0x3dc93cc0	0.0982604
2	0xbff45b99	-1.9090453
3	0xbd453100	-0.048142433
4	0x3cb45496	0.02201299
5	0xbfef5d5a	-1.8700364
6	0x3d230754	0.03980191
7	0xbc950d3a	-0.018194783
8	0x406631e1	3.5967944
9	0xbc8a8dd8	-0.01691334
10	0x3e092b00	0.1339531
11	0xc05c38b5	-3.4409611

rnn.weight_hh_l0 f4 [4, 4]
0	0xbcc07cfd	-0.023497099
1	0xbf1177ee	-0.56823623
2	0x3fc23a94	1.5174127
3	0x3f6278ea	0.8846575
4	0xbbb93803	-0.005652429
5	0x3f796729	0.97423035
6	0xbefc3844	-0.49261677
7	0xb8895097	-6.54768e-05
8	0xbef8f2f0	-0.48622847
9	0xbf781254	-0.96902966
10	0x3f82b828	1.021245
11	0x3e5cff78	0.21581829
12	0x3e220660	0.15822744
13	0x3db84e5b	0.0899932
14	0xbd702c14	-0.058635786
15	0x3f6c885f	0.92395586

rnn.bias_ih_l0 f4 [4]
0	0xbf6732de	-0.9031199
1	0x3bd99185	0.0066396617
2	0xbdf0e1cb	-0.117618166
3	0x3e8c1043	0.27356157

rnn.bias_hh_l0 f4 [4]
0	0xbf391f5e	-0.7231349
1	0x3e0acd72	0.13554934
2	0xbd8582ad	-0.06519065
3	0x3f344a5a	0.7042595

fc1.weight f4 [2, 4]
0	0xbfe7b6a0	-1.8102608
1	0x3e28be61	0.16478874
2	0x3fda45f1	1.7052594
3	0x3fc4be9f	1.5370673
4	0x401bca92	2.434239
5	0xbf0e1217	-0.5549635
6	0xbfd13215	-1.6343409
7	0xbfc7fb03	-1.5623478

fc1.bias f4 [2]
0	0xc0c0a71b	-6.0203986
1	0x40c45c4c	6.1362667
