rnn-tests-22-11-14-4node/model4.pth (torch, 2135 bytes, 6 tensors)

rnn.weight_ih_l0 f4 [4, 3]
00000000: e4b6 6c3c 4fd8 983e e5ad 9c3f 465e 0f3c
00000010: 33a9 c53e 6467 cbbc 3edb ca3c af9c 3cbd
00000020: 1308 ce3f 0ec8 893e e1cb dc3d 2a8e 95bf
0.014447901 0.2985253 1.2240568 0.008750504 0.3860565 -0.024829574 0.024762746 -0.046047863
1.6096214 0.26910442 0.10781074 -1.168401

rnn.weight_hh_l0 f4 [4, 4]
00000000: a875 a9be 7d76 6f3f f2a0 56bf a2f7 283e
00000010: be50 8c3f 10cd 243d 86cc b0bf 637f 153e
00000020: 33d4 88bf 8048 1f3f 08b8 57be e2e7 563e
00000030: 7992 0e3e 33fa 70be fbed bebe 6075 913f
-0.33097577 0.93540174 -0.83839333 0.16500714 1.096214 0.040234625 -1.3812416 0.14599375
-1.0689758 0.6222 -0.21066296 0.20986894 0.13923062 -0.23532943 -0.3729094 1.1363945

rnn.bias_ih_l0 f4 [4]
00000000: a317 843f 3e1c 893f 6e26 163f 25a2 373f
1.0319713 1.0711744 0.5865239 0.7173179

rnn.bias_hh_l0 f4 [4]
00000000: 5aac dc3e 97bf 963f db3d 023f 2e7f aa3e
0.43100244 1.1777219 0.50875634 0.33300155

fc1.weight f4 [2, 4]
00000000: a798 c1bf cf84 8e3f 0d8d 0140 efe4 f2be
00000010: 0999 a43f d9b0 8ebf aa72 d6bf 72f1 57bd
-1.5124711 1.113428 2.024234 -0.47440287 1.2859203 -1.114772 -1.6753743 -0.052720495

fc1.bias f4 [2]
00000000: 5fbd c0be eaf5 9f3e
-0.3764448 0.31242305
