rnn-tests-22-11-14-4node/model7.pth (torch, 2135 bytes, 6 tensors)

rnn.weight_ih_l0 f4 [4, 3]
00000000: 3a00 6cbc d862 4e3d 8d73 a23f 4191 3ebb
00000010: 847d dabd caae d33f ab72 5c3d ce56 8bbb
00000020: fabc 1c40 8f9d ba3d e882 b0bb bdea 2940
-0.014404351 0.050387233 1.2691513 -0.0029078277 -0.106684715 1.6537716 0.053820293 -0.0042522913
2.4490342 0.09112083 -0.005386699 2.6549523

rnn.weight_hh_l0 f4 [4, 4]
00000000: b52e 5f3f b1ee 43c0 d075 17be e10e 0d3e
00000010: 6ee5 e7bf 42c4 343f 51f4 29bd 80da 253d
00000020: 88c0 2f3d a04c 1ebd f0a7 30bf 6fbd a43f
00000030: 2438 9d3b d1c3 a8bc 4b28 37bf 6cd8 bc3f
0.87180644 -3.0614436 -0.14791036 0.13775207 -1.8116891 0.70611966 -0.041492764 0.04049158
0.04290822 -0.038647294 -0.6900625 1.287031 0.0047979522 -0.020601185 -0.7154586 1.4753547

rnn.bias_ih_l0 f4 [4]
00000000: 1343 073e 936d cc3d 7992 b9be 720e 923d
0.1320918 0.09981837 -0.36244562 0.071316615

rnn.bias_hh_l0 f4 [4]
00000000: cbbc c5bd 946a 85bd 8954 bfbe 3246 0b3d
-0.0965515 -0.06514469 -0.37369183 0.03400249

fc1.weight f4 [2, 4]
00000000: b31a 8fbf bb80 e53e f18a 0940 da9d f7bf
00000010: df08 ca3e 2dba 20bd 2aee 1cc0 633b d53f
-1.1180023 0.44824776 2.1491053 -1.9345047 0.39459893 -0.03924005 -2.4520364 1.6658748

fc1.bias f4 [2]
00000000: 6a22 933f 5cba a7bf
1.1494877 -1.3103747
