rnn-tests-22-11-14-4node/model5.pth (torch, 2135 bytes, 6 tensors)

rnn.weight_ih_l0 f4 [4, 3]
0.045704167 -0.024264095 2.1018386 0.20468956 -0.025165897 -0.5636243 -0.051516723 -0.09104258
-0.43382448 -0.035391536 0.05289942 1.8039699
00000000: 4b34 3b3d 7fc5 c6bc 8684 0640 249a 513e
00000010: b628 cebc af49 10bf 3303 53bd 8874 babd
00000020: 3e1e debe b7f6 10bd 10ad 583d 7ce8 e63f

rnn.weight_hh_l0 f4 [4, 4]
0.16120896 0.42604762 -0.83837956 -0.27206457 -0.45465425 1.1157382 -0.884425 -0.4026556
0.34663182 -0.12956446 0.23982416 -0.41836774 0.21100482 -0.07777454 -0.6473324 0.73829764
00000000: f613 253e ea22 da3e 0ba0 56bf 0c4c 8bbe
00000010: 71c8 e8be 82d0 8e3f ad69 62bf e028 cebe
00000020: ba79 b13e 8cac 04be 7794 753e 4c34 d6be
00000030: a611 583e 4248 9fbd 93b7 25bf 1301 3d3f

rnn.bias_ih_l0 f4 [4]
0.0078090453 0.09215562 -0.050896853 0.46707678
00000000: 05e3 ff3b 16bc bc3d 3879 50bd b024 ef3e

rnn.bias_hh_l0 f4 [4]
-0.031771563 0.86906946 0.8411334 0.2284966
00000000: e622 02bd 567b 5e3f 8554 573f 03fb 693e

fc1.weight f4 [2, 4]
1.138519 -0.6960749 -0.6152105 -1.1976105 -1.1737643 0.47619915 0.3449582 1.6165855
00000000: feba 913f f731 32bf 6f7e 1dbf 4d4b 99bf
00000010: e93d 96bf 60d0 f33e 5c9e b03e 46ec ce3f

fc1.bias f4 [2]
2.5771105 -3.0813363
00000000: 61ef 2440 9d34 45c0
