rnn-tests-22-11-14-4node/model9.pth (torch, 2135 bytes, 6 tensors)

rnn.weight_ih_l0 f4 [4, 3]
00000000: 882d b0bd f6e7 aebc 36bb 03c0 c9da 4d3c
00000010: c006 19be 887b 8c3e 9ef4 da39 5345 38be
00000020: 66f0 81bf 77d8 f93d 6952 27bc e17c ebbe
-0.086024344 -0.021350842 -2.0583014 0.0125643695 -0.14943981 0.27437997 0.00041762454 -0.17995195
-1.0151489 0.121994905 -0.010212519 -0.45993713

rnn.weight_hh_l0 f4 [4, 4]
00000000: 8720 babe 4ccb c2be 0b19 ab3e 037c 28bf
00000010: 9c68 c6bb cbda 973f 1fa9 4bbf 690a 3fbd
00000020: 0255 03bf 92e6 423f b4ce f5be 5c46 74bd
00000030: 92c0 2cbf 5f37 26be d1e8 883e 6917 6f3f
-0.3635294 -0.38045728 0.33417544 -0.65814227 -0.006054951 1.1863645 -0.79554933 -0.046640787
-0.51301587 0.7613307 -0.48009264 -0.059637412 -0.6748134 -0.1623206 0.26740125 0.93395096

rnn.bias_ih_l0 f4 [4]
00000000: 3989 2e3f 96aa f03d c146 44bf 5395 ab3e
0.68178135 0.11751287 -0.7667046 0.33512363

rnn.bias_hh_l0 f4 [4]
00000000: 5e9f e33e bb2f d43c 193d f4be 06e3 8b3e
0.44457525 0.025901666 -0.47702864 0.27321643

fc1.weight f4 [2, 4]
00000000: caf0 883f e60f 913f e09e 27bf 8e3d d13d
00000010: 7387 a7bf 078a c9be f779 843f 53af fbbd
1.0698483 1.1332977 -0.654768 0.10216819 -1.3088211 -0.3936312 1.0349721 -0.122893

fc1.bias f4 [2]
00000000: 7ad3 fabf 8a13 1c40
-1.9595788 2.4386926
