rnn-tests-22-11-14-4node/model0.pth (torch, 2135 bytes, 6 tensors)

rnn.weight_ih_l0 f4 [4, 3]
0	0x3dcaebfc	0.09908292
1	0xbcadb570	-0.02120468
2	0xbf3f2d63	-0.7467863
3	0xbc1d0aa9	-0.009585061
4	0xbd494bae	-0.04914444
5	0x3fe218d8	1.7663832
6	0xbc7f57c2	-0.015584888
7	0xbc483735	-0.012220194
8	0xbfb1cc18	-1.389041
9	0xbbd939d2	-0.006629207
10	0xbd613731	-0.054984275
11	0xc0bbbd13	-5.8668303

rnn.weight_hh_l0 f4 [4, 4]
0	0xbe093914	-0.1340068
1	0xbf6db743	-0.9285776
2	0xbf84324d	-1.032785
3	0x3dac7a8c	0.084218115
4	0xbc9cf7c1	-0.019161107
5	0xc03c00c2	-2.9375463
6	0xbd94aac5	-0.07259134
7	0x3f90258f	1.1261462
8	0xbf0e0c54	-0.5548756
9	0xbebee2c1	-0.37282375
10	0x3f3cdc44	0.737736
11	0x3d096f64	0.033553496
12	0xbe0c4294	-0.13697273
13	0xc0168942	-2.3521276
14	0xbe53f361	-0.2069831
15	0x3f8cee18	1.101016

rnn.bias_ih_l0 f4 [4]
0	0x3ed44ee8	0.4146645
1	0xbf61209e	-0.87940395
2	0xbe8e1867	-0.27752993
3	0x3e526087	0.20544635

rnn.bias_hh_l0 f4 [4]
0	0x3ee558b7	0.44794247
1	0xbf692929	-0.9107843
2	0x3f29aaa3	0.66275996
3	0x3b809f68	0.0039252527

fc1.weight f4 [2, 4]
0	0xbf06bf09	-0.52635247
1	0x3fe53e7c	1.7909694
2	0x3f814b25	1.0101057
3	0x3cfbee08	0.03075315
4	0x3e8227b6	0.25420922
5	0xbfd92f90	-1.696764
6	0xbfbe51c2	-1.48687
7	0x3daf0849	0.08546502

fc1.bias f4 [2]
0	0xbfba2be9	-1.454465
1	0x4014fffa	2.3281236
