rnn-tests-22-11-14-2node/model7.pth (torch, 2135 bytes, 6 tensors)

rnn.weight_ih_l0 f4 [2, 3]
-0.014763135 0.029508319 -4.686635 0.0019023971 0.027997846 -4.314806
00000000: 14e1 71bc 6ebb f13c eaf8 95c0 db59 f93a
00000010: bd5b e53c e412 8ac0

rnn.weight_hh_l0 f4 [2, 2]
1.0215219 -0.045616735 0.008217141 0.98541784
00000000: 3bc1 823f 9dd8 3abd 30a1 063c 5844 7c3f

rnn.bias_ih_l0 f4 [2]
0.28419366 0.6304504
00000000: d581 913e 3365 213f

rnn.bias_hh_l0 f4 [2]
0.15209553 -0.15621237
00000000: eebe 1b3e 23f6 1fbe

fc1.weight f4 [2, 2]
3.3923502 -3.579629 -4.132112 3.823212
00000000: 441c 5940 a418 65c0 433a 84c0 81af 7440

fc1.bias f4 [2]
0.7653279 -1.3494501
00000000: 87ec 433f c8ba acbf
