rnn-tests-22-11-14-2node/model2.pth (torch, 2135 bytes, 6 tensors)

rnn.weight_ih_l0 f4 [2, 3]
0	0xbe1b07f9	-0.1513976
1	0xbe4d230a	-0.20032898
2	0xbe240354	-0.16016895
3	0xbe8f870f	-0.2803273
4	0xbeb08e2b	-0.34483466
5	0xbeef766c	-0.46770036

rnn.weight_hh_l0 f4 [2, 2]
0	0xc004b410	-2.0734901
1	0x3fe76ac2	1.8079455
2	0xc00dd3d7	-2.2160547
3	0x40134e8d	2.3016694

rnn.bias_ih_l0 f4 [2]
0	0xbdf18d73	-0.117945574
1	0x3ef2243e	0.47293276

rnn.bias_hh_l0 f4 [2]
0	0xbf34e8d1	-0.7066775
1	0x3e5c7236	0.21527943

fc1.weight f4 [2, 2]
0	0x3f4b936d	0.7952183
1	0xbe4ca9b2	-0.19986609
2	0xbf510dab	-0.8166148
3	0x3f144e38	0.5793185

fc1.bias f4 [2]
0	0xbf5be645	-0.8589824
1	0x3fd10086	1.6328285
