rnn-tests-22-11-14-2node/model6.pth (torch, 2135 bytes, 6 tensors)

rnn.weight_ih_l0 f4 [2, 3]
0	0xbced35f4	-0.02895639
1	0x3cf795b8	0.030222759
2	0x408e2f12	4.443246
3	0xbd03ecfe	-0.032208435
4	0x3b27b70d	0.0025591285
5	0x4069c965	3.6529171

rnn.weight_hh_l0 f4 [2, 2]
0	0x3f7223a7	0.9458565
1	0x3d81fa66	0.06346588
2	0xbc78476b	-0.015153746
3	0x3f81fd45	1.0155417

rnn.bias_ih_l0 f4 [2]
0	0xbdd66640	-0.104687214
1	0xbe3373ab	-0.17524593

rnn.bias_hh_l0 f4 [2]
0	0x3e9582af	0.29201266
1	0x3f10e0eb	0.565932

fc1.weight f4 [2, 2]
0	0xc030a1b8	-2.7598705
1	0x402ade35	2.6698124
2	0x406ca883	3.6977851
3	0xc05d6d01	-3.459778

fc1.bias f4 [2]
0	0xbf88ecaf	-1.069723
1	0x3fb3cf5c	1.4047656
