rnn-tests-22-11-14-2node/model9.pth (torch, 2135 bytes, 6 tensors)

rnn.weight_ih_l0 f4 [2, 3]
00000000: 455c b6bd 0e55 a0bd f310 1e40 107e 37bd
00000010: 6bd8 1cbd 5cd1 7640
-0.08904318 -0.07828723 2.4697845 -0.044797957 -0.03829233 3.8565283

rnn.weight_hh_l0 f4 [2, 2]
00000000: 801e 123f 3fc4 7c3f 9133 23bf b489 2240
0.5707779 0.9873695 -0.6375056 2.5396547

rnn.bias_ih_l0 f4 [2]
00000000: 2d18 09bf 61e2 c7bd
-0.53552514 -0.09759975

rnn.bias_hh_l0 f4 [2]
00000000: 6400 133f 5eb4 963e
0.5742247 0.29434484

fc1.weight f4 [2, 2]
00000000: 40e8 0a3f b27a ccbe 5446 e4be 7d5d 613e
0.54260635 -0.3993736 -0.44584906 0.22008319

fc1.bias f4 [2]
00000000: ea99 1bbf e181 b93d
-0.6078173 0.090579756
