rnn-tests-22-11-13-4node/model3.pth (torch, 2135 bytes, 6 tensors)

rnn.weight_ih_l0 f4 [4, 3]
00000000: a1c6 97bb 7c53 363c 2220 e2bf b84c 633a
00000010: 1b38 96ba 6df7 3ec1 44d1 b43a fb03 a93c
00000020: c090 8241 4788 bcba 1455 17bd c295 50c0
-0.0046318327 0.011128303 -1.7666056 0.0008670795 -0.0011460813 -11.935407 0.0013795276 0.02063178
16.320679 -0.0014383876 -0.03694637 -3.2591405

rnn.weight_hh_l0 f4 [4, 4]
00000000: 7c66 ffbf dfb7 b1c0 3e51 193e 6055 57bd
00000010: 0bda b6c0 ddcb 823f 72b5 61bd 41a4 debc
00000020: e556 e740 3b51 863f 58fb ddbc b053 0bbf
00000030: b6c1 acc1 76ff 0d3f c348 b5bf d7e9 973e
-1.9953151 -5.553695 0.14972398 -0.052571654 -5.7141166 1.0218464 -0.05510468 -0.027177932
7.2293572 1.049354 -0.02709739 -0.5442457 -21.594585 0.5546793 -1.416283 0.29670593

rnn.bias_ih_l0 f4 [4]
00000000: 4497 bebe 97f4 9f3e e973 563f 38fa 9a3f
-0.37224782 0.31241295 0.83770615 1.2107611

rnn.bias_hh_l0 f4 [4]
00000000: 76a3 02bf 4894 60be afe5 4d3f 1c1c ae3f
-0.5103067 -0.21931565 0.80428594 1.3602328

fc1.weight f4 [2, 4]
00000000: 6c17 6541 8489 46c0 e7ea 80be 351e 9940
00000010: 31b8 73c1 ca5d 4f40 6ba7 523e 904c 88c0
14.318218 -3.1021433 -0.25179216 4.7849374 -15.232469 3.2400994 0.20571677 -4.259346

fc1.bias f4 [2]
00000000: 1533 2540 5149 3bc0
2.5812428 -2.9263499
