rnn-tests-22-11-13-4node/model5.pth (torch, 2135 bytes, 6 tensors)

rnn.weight_ih_l0 f4 [4, 3]
000000 74 b4 67 bb 36 f9 d5 3a 21 9c 16 c0 87 58 35 3a
       -0.0035355361 0.0016324881 -2.3532794 0.00069177937
000010 4d 2e 1f b9 9f c0 40 c1 e5 9f b7 39 bc 96 04 3d
       -0.0001518067 -12.047027 0.0003502361 0.032370314
000020 36 14 cb 40 fa 45 16 3b bc b1 b2 bb b8 14 7f c0
       6.346217 0.0022929893 -0.0054533165 -3.9856396

rnn.weight_hh_l0 f4 [4, 4]
000000 7c 66 ff bf 9f 90 ad c0 88 6d 6f 3e 0c 1c c6 3d
       -1.9953151 -5.423904 0.23381627 0.09673318
000010 2c 83 0c c0 e7 94 7b 3f 63 02 2e bd e4 60 84 bc
       -2.195506 0.9827408 -0.042482745 -0.016159482
000020 99 b8 21 41 1f 55 34 3f 10 c0 05 3f 70 5f 60 be
       10.107568 0.70442384 0.5224619 -0.21911407
000030 f8 44 c0 c1 81 44 0c be ce 7c 94 bf bc 31 0d 3f
       -24.033676 -0.13698007 -1.1600587 0.55154014

rnn.bias_ih_l0 f4 [4]
000000 e4 58 25 3d 83 97 a5 3e cb 3a a0 3e f2 fe 79 3f
       0.040367976 0.32342157 0.31294855 0.9765464

rnn.bias_hh_l0 f4 [4]
000000 9d 0c c8 bd 15 4f 55 be ef 1e 8f 3e ee 20 90 3f
       -0.09768031 -0.20830949 0.27953288 1.1260049

fc1.weight f4 [2, 4]
000000 f0 9f af 41 87 9d 4b c0 9c 0f 27 bf 44 12 8e 40
       21.953094 -3.1814897 -0.65258193 4.4397297
000010 b0 f0 b6 c1 bd 71 54 40 db 49 1b 3f fa 79 7a c0
       -22.867523 3.319442 0.6065957 -3.9136949

fc1.bias f4 [2]
000000 e3 7a 3f 40 36 92 55 c0
       2.9918754 -3.337049
