rnn-tests-22-11-13-4node/model1.pth (torch, 2135 bytes, 6 tensors)

rnn.weight_ih_l0 f4 [4, 3]
000000 dc 22 c3 ba e7 23 3d bb 40 ee d9 be 54 b3 ca 3a
       -0.0014887708 -0.002886051 -0.42564583 0.0015464821
000010 9a c2 2a b8 f3 2d 38 c1 57 d9 05 bc 2a 89 08 3e
       -4.0712395e-05 -11.511218 -0.008169494 0.13333574
000020 d8 ab ae 40 be 30 71 bc 96 0e 11 3c 45 8a 62 c0
       5.458477 -0.014721094 0.008853575 -3.5396893

rnn.weight_hh_l0 f4 [4, 4]
000000 f9 46 e0 be 5d d2 d1 c0 e9 d1 83 3d c9 8d 4e be
       -0.43804148 -6.556929 0.064365216 -0.20171274
000010 80 c1 b6 3c 12 52 80 3f ea ae 2a bb ff 63 82 bb
       0.022309065 1.0025046 -0.0026044198 -0.0039792056
000020 ff 9f 19 c0 e5 47 ce bf b4 6b 3c 3f 8f ee dd be
       -2.4003904 -1.611569 0.7360184 -0.43346068
000030 63 d2 06 40 6d 50 82 3e fd 4b 96 be 1d 6b 28 3f
       2.106591 0.25451985 -0.2935485 0.6578844

rnn.bias_ih_l0 f4 [4]
000000 78 97 c3 3e 8a 9c 8b 3e 8a 19 61 3f cd 8e 22 3f
       0.382015 0.27267867 0.87929595 0.63499147

rnn.bias_hh_l0 f4 [4]
000000 33 d4 79 3e 84 a2 84 be 33 8b 58 3f 61 d2 48 3f
       0.24397354 -0.2590524 0.845874 0.7844601

fc1.weight f4 [2, 4]
000000 03 ec 2d 41 8e 28 28 c0 81 82 17 bf 12 6b 75 40
       10.87012 -2.6274753 -0.5918351 3.83466
000010 d0 8c 3c c1 d9 fc 30 40 dc b1 0b 3f 7a c8 53 c0
       -11.784378 2.7654326 0.54568267 -3.309111

fc1.bias f4 [2]
000000 41 dd 30 40 62 f1 46 c0
       2.7635043 -3.1084828
