rnn-tests-22-11-13-4node/model7.pth (torch, 2135 bytes, 6 tensors)

rnn.weight_ih_l0 f4 [4, 3]
0	0xbb97259d	-0.004612638
1	0x3b11b2c3	0.0022231794
2	0xc024f545	-2.57747
3	0x39eb1ccf	0.00044844157
4	0xba145448	-0.0005658311
5	0xc1403a0f	-12.014174
6	0xba650183	-0.0008735882
7	0x3bdf054b	0.006806051
8	0x40f79a97	7.737621
9	0xb9c7a523	-0.00038079274
10	0xbc8dad13	-0.017294442
11	0xc07c04f8	-3.9378033

rnn.weight_hh_l0 f4 [4, 4]
0	0x3eb5620f	0.35426375
1	0xc0ab6d90	-5.3571243
2	0x3e8791f1	0.26478532
3	0x3dd5cfd1	0.104400285
4	0xc18e0c88	-17.756119
5	0x3f84ccc3	1.0374988
6	0xbd564b24	-0.052317753
7	0xbc848089	-0.016174572
8	0x41a8bba5	21.091623
9	0x3e4344a5	0.19069155
10	0x3f720b13	0.9454815
11	0xbd2884c0	-0.041142225
12	0xc17a2dee	-15.636213
13	0x3e8174af	0.25284335
14	0xbfc9f135	-1.5776736
15	0x3f0204b9	0.50788456

rnn.bias_ih_l0 f4 [4]
0	0xbd38794c	-0.045037553
1	0x3ea183fd	0.31546012
2	0x3d7d41fc	0.061830506
3	0x3f717e3b	0.9433324

rnn.bias_hh_l0 f4 [4]
0	0xbe3b7baf	-0.183089
1	0xbe5d745c	-0.21626419
2	0x3ce8c7e6	0.028415632
3	0x3f8be055	1.0927836

fc1.weight f4 [2, 4]
0	0x41b7bd00	22.967285
1	0xc0496a54	-3.1471148
2	0xbeed3149	-0.46326664
3	0x408ebce2	4.460557
4	0xc1bf0dc9	-23.881731
5	0x40523e72	3.2850614
6	0x3ed5aa7c	0.41731632
7	0xc07bd8ab	-3.9350994

fc1.bias f4 [2]
0	0x4014e5de	2.32653
1	0xc02afd47	-2.6717088
