rnn-tests-22-11-13-4node/model4.pth (torch, 2135 bytes, 6 tensors)

rnn.weight_ih_l0 f4 [4, 3]
-0.005959013 0.002480598 -1.9367031 0.00097251736 -0.0005509826 -12.239443 0.001598149 0.020272449
6.731707 0.0042501604 -0.010561423 -4.28626
00000000: d343 c3bb 8791 223b e3e5 f7bf 89f0 7e3a
00000010: d16f 10ba c2d4 43c1 fb78 d13a 6812 a63c
00000020: 256a d740 ee44 8b3b d209 2dbc 0b29 89c0

rnn.weight_hh_l0 f4 [4, 4]
-1.9953151 -5.453615 0.15180252 0.09288977 -5.519377 1.0221373 -0.04040921 -0.022608126
7.4664917 0.40375262 0.82030725 -0.10274245 -21.586292 0.07433295 -0.8430451 0.56965005
00000000: 7c66 ffbf 0484 aec0 1f72 1b3e fe3c be3d
00000010: bd9e b0c0 65d5 823f 2184 25bd ad34 b9bc
00000020: 80ed ee40 aab8 ce3e a8ff 513f a26a d2bd
00000030: bab0 acc1 e03b 983d ced1 57bf 96d4 113f

rnn.bias_ih_l0 f4 [4]
-0.35038212 0.3199323 0.17823695 0.9715117
00000000: 4965 b3be 2bce a33e bf83 363e feb4 783f

rnn.bias_hh_l0 f4 [4]
-0.48842832 -0.21180631 0.14482296 1.12098
00000000: 4713 fabe c1e3 58be 784c 143e 467c 8f3f

fc1.weight f4 [2, 4]
16.228447 -3.3861573 -0.6439932 4.5457444 -17.142883 3.5241132 0.59795713 -4.020152
00000000: dcd3 8141 cdb6 58c0 bddc 24bf bd76 9140
00000010: a024 89c1 128b 6140 b813 193f 16a5 80c0

fc1.bias f4 [2]
3.0983977 -3.4435031
00000000: 264c 4640 5b62 5cc0
