rnn-tests-22-11-13-4node/model8.pth (torch, 2135 bytes, 6 tensors)

rnn.weight_ih_l0 f4 [4, 3]
0	0xbb854bb6	-0.0040678633
1	0xb91b5341	-0.00014812966
2	0xc0224267	-2.5353029
3	0x3a28eadb	0.00064436876
4	0xb91d15b7	-0.00014980776
5	0xc141b818	-12.107445
6	0x3a994684	0.0011693989
7	0x3cbb69b1	0.022877546
8	0x400b71f3	2.17883
9	0x3aa35887	0.0012462296
10	0x3a539784	0.0008071589
11	0xc090c8b2	-4.524499

rnn.weight_hh_l0 f4 [4, 4]
0	0x3eb5620f	0.35426375
1	0xc0a9b59b	-5.3034186
2	0x3e634e68	0.22197878
3	0x3dec116a	0.11526759
4	0xc18e0c88	-17.756119
5	0x3f7b5932	0.98182976
6	0xbd686e22	-0.056745656
7	0xbc56bfce	-0.013107253
8	0x41a8bba5	21.091623
9	0x3c7ce151	0.015434579
10	0x3f38b0dc	0.72144866
11	0xbd50b0b1	-0.050949756
12	0xc17a2dee	-15.636213
13	0x3f2c6317	0.673387
14	0xbfb1991b	-1.3874849
15	0x3f22b643	0.6355936

rnn.bias_ih_l0 f4 [4]
0	0xbdb299fa	-0.08720775
1	0x3ea3b58a	0.3197444
2	0x3de865a6	0.11347513
3	0x3f39d469	0.7258974

rnn.bias_hh_l0 f4 [4]
0	0xbe66acf7	-0.22526918
1	0xbe5910fe	-0.21197888
2	0x3da3fa31	0.080067046
3	0x3f6017b0	0.87536144

fc1.weight f4 [2, 4]
0	0x41aec565	21.846384
1	0xc04e89e4	-3.2271662
2	0xbfd6bf93	-1.6777214
3	0x40873ce4	4.226183
4	0xc1b61632	-22.760838
5	0x40575e00	3.3651123
6	0x3fd0e01b	1.6318392
7	0xc06ce430	-3.7014275

fc1.bias f4 [2]
0	0x402e5bed	2.7243607
1	0xc0447346	-3.0695357
