rnn-tests-22-11-13-4node/model9.pth (torch, 2135 bytes, 6 tensors)

rnn.weight_ih_l0 f4 [4, 3]
000000 4c af c9 bb 7a 07 52 3b 4d a6 07 c0 14 55 bf 3a
       -0.00615493 0.0032047913 -2.1195252 0.0014597499
000010 d6 1c 18 ba 8d ff 42 c1 fe b3 c5 3b 4a 89 bb 3c
       -0.0005802637 -12.18739 0.0060334196 0.022892613
000020 cc 35 87 40 8e af 53 3c 42 e8 37 bc 4f 43 8b c0
       4.225317 0.0129202735 -0.011224808 -4.3519664

rnn.weight_hh_l0 f4 [4, 4]
000000 0f 62 b5 3e 1d a4 a8 c0 6c 3c fa 3e dd ef ff 3d
       0.35426375 -5.2700334 0.48874223 0.12496922
000010 88 0c 8e c1 5c b8 81 3f 9a c3 de bd 12 21 97 bc
       -17.756119 1.0134387 -0.10877152 -0.018448386
000020 a5 bb a8 41 b0 42 87 bf 30 99 44 3f f9 d2 ef 3b
       21.091623 -1.0567226 0.76796246 0.007318851
000030 ee 2d 7a c1 55 b1 c3 3e 39 ac 09 c0 e6 7f 22 3f
       -15.636213 0.3822123 -2.1511366 0.6347641

rnn.bias_ih_l0 f4 [4]
000000 e7 c5 00 bf 18 81 9f 3e 42 7b d1 3d 3e 28 4c 3f
       -0.50301975 0.31153178 0.10228588 0.79748905

rnn.bias_hh_l0 f4 [4]
000000 13 1d 24 bf ad 77 61 be 53 0d 8d 3d 64 6a 72 3f
       -0.64106864 -0.22018309 0.06887307 0.9469359

fc1.weight f4 [2, 4]
000000 64 d5 88 41 42 04 53 c0 68 2d 11 bf 09 7b 88 40
       17.104195 -3.2971349 -0.5670991 4.265019
000010 2c 26 90 c1 67 d8 5b 40 a4 72 05 3f ab 5f 6f c0
       -18.018639 3.4350832 0.5212805 -3.740214

fc1.bias f4 [2]
000000 ea 7c b5 3f 7d aa e1 bf
       1.4178746 -1.7630154
