rnn-tests-22-11-15-4node/model1.pth (torch, 2135 bytes, 6 tensors)

rnn.weight_ih_l0 f4 [4, 3]
-0.009674675 0.050518807 -1.1855338 -0.058304127 -0.01825419 -2.5060067 -0.84065527 0.029385434
-1.2009413 -0.021184685 -0.03218126 -0.8679729
00000000: 8782 1ebc cfec 4e3d 92bf 97bf 4fd0 6ebd
00000010: d089 95bc 6a62 20c0 2f35 57bf b9b9 f03c
00000020: 72b8 99bf 818b adbc 7fd0 03bd 7933 5ebf

rnn.weight_hh_l0 f4 [4, 4]
1.2961487 -0.4883671 0.023135742 -0.6123053 0.17715031 -0.27280146 0.30290624 -6.1816535
-1.043203 11.608129 1.6108418 -11.575701 0.11774845 -8.152559 0.10058894 2.8375132
00000000: 33e8 a53f 410b fabe 2b87 bd3c 0ac0 1cbf
00000010: e466 353e a2ac 8bbe 8716 9b3e 1bd0 c5c0
00000020: ad87 85bf e5ba 3941 1030 ce3f 1236 39c1
00000030: 1926 f13d e270 02c1 9301 ce3d d199 3540

rnn.bias_ih_l0 f4 [4]
-0.61592346 -3.8554442 -0.53766906 -3.153458
00000000: 29ad 1dbf 99bf 76c0 aea4 09bf 42d2 49c0

rnn.bias_hh_l0 f4 [4]
-0.20203425 -3.8791494 0.060963497 -3.6005368
00000000: 11e2 4ebe fc43 78c0 dcb4 793d 326f 66c0

fc1.weight f4 [2, 4]
-2.5443935 2.1047063 0.21698086 -3.5864336 1.7319622 -1.9318497 -0.13237965 4.243896
00000000: 58d7 22c0 82b3 0640 3b30 5e3e 2188 65c0
00000010: f0b0 dd3f da46 f7bf 888e 07be ffcd 8740

fc1.bias f4 [2]
-2.6563954 2.4625232
00000000: 6202 2ac0 fb99 1d40
