models/94Acc2Node200kEpoch.pth (torch, 2135 bytes, 6 tensors)

rnn.weight_ih_l0 f4 [2, 3]
000000 b9 07 5e 3e b9 d0 a7 3b c8 47 b1 3f ad 22 0a 3e
       0.21682633 0.005121317 1.3850031 0.1348979
000010 b2 b2 30 be 81 7d 14 40
       -0.17255667 2.3201602

rnn.weight_hh_l0 f4 [2, 2]
000000 a6 61 77 3f c0 7a c1 3d 55 3d 3e bc 7e 57 88 3f
       0.96633375 0.09447241 -0.011611302 1.06517

rnn.bias_ih_l0 f4 [2]
000000 ff 54 96 3e f2 00 6e bf
       0.29361722 -0.9297019

rnn.bias_hh_l0 f4 [2]
000000 1f a1 a4 3e 88 89 e7 be
       0.32154176 -0.45222116

fc1.weight f4 [2, 2]
000000 c5 69 ad bf 9e 48 cb 3f 2b 35 b8 3f 8b e1 15 c0
       -1.3547903 1.5881536 1.4391226 -2.341891

fc1.bias f4 [2]
000000 87 42 eb 40 ac 72 f9 c0
       7.351871 -7.795248
